models/A2_Clothing_Shoes_and_Jewelry_5/revw_model.pth (torch, 320869 bytes, 6 tensors)

weight f4 [50, 768]
00000000: 214f 8dbc fb1b 85bd 3e0e 3cbd 6cb3 f63c
00000010: 41aa a3bb 202c d8bc b5be 73ba 827a dabc
00000020: 616d e9bc 4639 bf3a 56eb 1b3d 5e7d b73d
00000030: 5414 a83c 8e2c c43b f6ff 8b3d c39e 3c3d
00000040: 1d10 a0bd f336 1bbc 323f a83d 693d ffbb
00000050: b37d 95bd b4a2 8abd a5f5 c23b 7180 25bd
00000060: e381 f53c 0a1d 3abc 405b 6bbc cf7a 87bd
00000070: 0a8d 033b 60f3 9b3a 9e35 89bd ab95 213c
00000080: 20f6 ad3d 942b c43b ebc6 373d a843 723d
00000090: 8731 69bd 8a30 ca3d 0fb0 5fbd 639d 3bbc
000000a0: 45b6 70bc 6113 acbc ce95 393d fa09 87bd
000000b0: 8d73 203c c8f2 0a3d 9bb0 37bd 4319 133d
000000c0: 0d99 ae3d f230 b1bd ea52 673d 5bbe 893c
000000d0: d52f b73d 7812 4d3d 20cd 26bb 931c 6e3d
000000e0: c204 8b3c c5e9 703d f4b5 693d 51e7 393d
000000f0: 7eda 013d 4f81 fd39 30a8 493d 5cc8 8cbd
00000100: edad 2abd 3984 f9bc b7cb f1b9 7fea aebc
00000110: 25ff 42bd b163 343c 7361 aab6 16f2 a7bd
00000120: 3139 a8bd 0046 f63c cf2f 92bc 4c80 2e3d
00000130: bca1 753d 8bf5 1aba 94ee 45bd ad7f 5fbd
00000140: 8c60 673d 5371 f63c cdd5 44bd 5ccc b9bd
00000150: d00d 4cbd ef5a cfbd 9eab 003d d942 313c
00000160: 56a3 60bd 99dd 313c c4fd a2bd d7bb d63c
00000170: bea0 7cbc 2aeb 513d b39a 3c3c d815 37bc
00000180: fd3c d73c a672 97bc e7f6 aabd 4e3f afbc
00000190: 0dd7 143d 071a 98bd 6015 a0bd 871a b43c
000001a0: c1b1 e4bc 8b19 81bd eadd 70bd 63be 94bc
000001b0: 443d 9fbc 4713 813d b8e7 903b 4d12 e43c
000001c0: 6792 80bd 5682 d7bc 5bfc dc3b e5fe a3bc
000001d0: ba19 27bd de02 2dbd e309 a8bd e9e4 c1bd
000001e0: 6a27 aa3d d724 d23b 40c8 9fbd d271 fb3c
000001f0: d846 46bd 1880 d93a add1 36bd d170 51bd
00000200: 786d b33b c68e 763d 5d94 a9bc 0a80 873d
00000210: 9f30 cabc b153 ed3c 2c10 353d bb83 333d
00000220: 4fff 43bd a589 07bd 6ff2 463d 14cd aabd
00000230: 69fc cdbb cfa1 053d f3ac 163c ef80 3cbd
00000240: 1739 0abd d309 a83c 2afb d83c 1180 9a3d
00000250: c0e1 3cbc 31aa eabc 1b15 8abb 6e28 50bd
00000260: c0a2 89bc a53b 623d 2f1c 5a3d 865b 22bd
00000270: 296b 0b3d 2cb9 2a3b 2ab4 553b 49cd 833d
00000280: 2537 bcbd 60f8 7cbd 6f31 603d 3d9f 1a3d
00000290: 0c2a a0bb c68d 553c ea44 873d 0ac6 e73c
000002a0: 82be de3b 3e62 afbc e8eb 853d b816 b1bd
000002b0: 534a bc3c 6dc2 7cbd 66d1 3abd 89ff 57bd
000002c0: 3f3b 8a3d cd91 953c e828 1c3d e93d a33d
000002d0: 10a9 a3bc 42df f0b9 4cfb b1bd 0e59 e93b
000002e0: cd99 49bd 1315 943d 15c0 9c3d 0511 d03b
000002f0: 8112 993d 2c36 783d 80a0 923c f91d b63d
00000300: 34a4 c5bc 56bd 553d cbf4 e53c 8b5b e3bc
00000310: 3a5e 13bd 24c2 373c 7fcf a93d 798f 99bd
00000320: 3da4 053d a920 5ebc ad98 4abc ad28 e1bc
00000330: eaab c53c 140d 8e3d 01aa b43c 457d 263d
00000340: 2ec1 5abd f49a 99bd 0cd9 77bd 0a45 05bd
00000350: 10eb 45bd 76ed 3c3c 64c1 42bb 50fb 983d
00000360: 9ea2 f23c ed14 adbd 3401 4e3d a6c4 01bd
00000370: 59fd 003c b6d4 61bd 2ae3 25bd cd5a 683d
00000380: 62e4 103b 49b5 053d dd61 983d 0e4a 30bc
00000390: a4d3 ddbc b736 543c d06f b9bd 1da8 58bd
000003a0: ba72 a73c a813 5ebd bb08 30bc c59b 8fbd
000003b0: 2229 2e3d 0d6c a03c 67c8 373d 1ed6 183c
000003c0: 5a44 51bd 5277 2d3d 382e 52bd 81cb 243c
000003d0: 46d5 2f3d 0b9d a83b f93e 903d 841a 623d
000003e0: 084b 913d 2bdc 7a3b f1dd 86bd 506a 8fbd
000003f0: f60b bb3c d743 10bd 3345 2cbd cb46 a03d
-0.017249646 -0.064994775 -0.04591202 0.030114852 -0.004994661 -0.026388228 -0.0009298132 -0.026669744
-0.028494539 0.0014589212 0.03806623 0.08959459 0.020517506 0.0059867566 0.0683593 0.046049844
-0.07815573 -0.00947355 0.082151785 -0.007789303 -0.07299366 -0.067693144 0.0059496933 -0.040405694
0.029969161 -0.0113594625 -0.014365017 -0.06615221 0.002007308 0.0011898093 -0.0669968 0.009862344
0.0849421 0.00598664 0.044867437 0.059146553 -0.056932 0.09872539 -0.054611262 -0.011451098
-0.014691894 -0.021005334 0.04530888 -0.065937 0.009793174 0.03392294 -0.04484616 0.035912763
0.08525286 -0.08651914 0.056475557 0.016814401 0.0894467 0.05006644 -0.0025451854 0.05813272
0.016970042 0.05881669 0.05705829 0.045386616 0.03170251 0.00048352263 0.04923266 -0.06874153
-0.041669775 -0.030458556 -0.0004611888 -0.02135205 -0.047606606 0.011010096 -5.0777394e-06 -0.08200471
-0.082140334 0.030062675 -0.017845063 0.042602822 0.059968695 -0.00059112225 -0.04832323 -0.05456512
0.05648856 0.030083334 -0.04805546 -0.090721816 -0.04981786 -0.10124766 0.031413667 0.01081916
-0.05484327 0.010856056 -0.07958558 0.026212616 -0.015419183 0.05124966 0.011511493 -0.011174642
0.026274199 -0.018487286 -0.08347874 -0.02139249 0.0363379 -0.07426839 -0.07816577 0.021985305
-0.02791679 -0.063037 -0.058805384 -0.01815719 -0.019438393 0.06302505 0.0044221543 0.027840758
-0.06277924 -0.026307266 0.0067439503 -0.020019004 -0.04079602 -0.042239062 -0.08205011 -0.09467489
0.08308299 0.006413083 -0.078018665 0.030693922 -0.048407406 0.0016593961 -0.044633556 -0.05113298
0.005475696 0.060194753 -0.020700628 0.066162184 -0.024681387 0.028970571 0.044204876 0.0438268
-0.047850903 -0.033090252 0.048571046 -0.08339897 -0.006286193 0.032625016 0.009196508 -0.0460214
-0.03374585 0.020512497 0.026486952 0.07543958 -0.011528432 -0.028645607 -0.0042139417 -0.050819807
-0.016801238 0.055232663 0.053249534 -0.039638065 0.034037743 0.0026050312 0.0032608607 0.064356394
-0.091902055 -0.061760306 0.054734644 0.037749518 -0.004887825 0.01303429 0.06604941 0.028292675
0.0067976126 -0.02140915 0.06539136 -0.086469114 0.02298466 -0.061708856 -0.045609854 -0.05273393
0.067495815 0.018258 0.03812495 0.07970793 -0.019978076 -0.00045942707 -0.08690509 0.007121212
-0.04921894 0.07230582 0.07653824 0.006349685 0.074742325 0.060598537 0.017898798 0.088924356
-0.02412615 0.052182518 0.028070828 -0.027753612 -0.035978533 0.01121572 0.0829153 -0.07498068
0.032627333 -0.0135575915 -0.012365502 -0.027485216 0.024129827 0.06936088 0.02205372 0.04064681
-0.053406887 -0.07500258 -0.060509726 -0.032536544 -0.048319876 0.0115312245 -0.002971732 0.07469809
0.029618558 -0.08451257 0.050294116 -0.03168168 0.007872903 -0.055134498 -0.040499844 0.05672722
0.0022108783 0.03264359 0.07440541 -0.0107598435 -0.027078457 0.012952498 -0.0905453 -0.0528947
0.020440448 -0.054217964 -0.010744269 -0.070121326 0.042519696 0.019582773 0.044868853 0.009328393
-0.051090576 0.04235012 -0.05131361 0.010058285 0.042928003 0.005145674 0.07043261 0.05520107
0.07094389 0.0038278203 -0.06585301 -0.070026994 0.022832852 -0.035220947 -0.04205818 0.07826003

bias f4 [50]
00000000: 57b1 d8bb ac0e 0c3e 4614 1b3d 8876 dbbc
00000010: 9bed b0bc ec0d a7ba 009c 37bd 7ed8 53bc
00000020: c7de 31bc 72d7 023d 3845 e23d 4601 87bc
00000030: d61f 1dbd 5a42 dc3d ca28 d43d 7ee0 35bb
00000040: 3974 1bbd 94b2 5cbc 6704 473d 5a46 6c3d
00000050: e37b 7ebc f72d 2bbb 5237 b6b9 c404 cb3d
00000060: 1823 84bc fc73 4cbc e063 833d 4997 98bc
00000070: 26fe 9fbc be03 1dbc c47b 17bc df11 09bb
00000080: ee21 24bb 45ba 6cbb f175 25bd 1c0c 95bc
00000090: 598b 85bb 2108 c6ba 9674 ae3d 413a 773d
000000a0: 3f30 2a3c 9498 763d e059 cfbb b1ae 573d
000000b0: b3e6 3cbc 333c 95bc 3274 a3bc 84d6 ca3c
000000c0: 4f59 f7ba 2b06 41bb
-0.0066129374 0.13677472 0.03786113 -0.026789919 -0.021597674 -0.0012745238 -0.044826508 -0.012930034
-0.010856337 0.031943746 0.11048359 -0.0164801 -0.03836044 0.10754843 0.103593424 -0.0027752216
-0.037952635 -0.013470311 0.048588183 0.05768428 -0.015532467 -0.0026119926 -0.00034754962 0.09913018
-0.016130015 -0.012478825 0.06415534 -0.018626826 -0.019530367 -0.009583412 -0.009245817 -0.0020915193
-0.0025044638 -0.0036121767 -0.04039568 -0.01819425 -0.0040754494 -0.0015108624 0.08518331 0.06035829
0.010387479 0.060204104 -0.0063278526 0.052656833 -0.011529612 -0.018217182 -0.019952867 0.024760492
-0.001887122 -0.002945314

weight f4 [50, 768]
00000000: 7cd8 2bbd 03fc 44bd c323 66bb 2720 2abd
00000010: a6dc 9cbd b5f1 b13d 95db 593d 2f01 e03c
00000020: cd93 24bd cd2c 50bd 7789 a33c 04e6 82bd
00000030: 9f53 953d e38e 653d d779 b13d 91bc 123d
00000040: e6d5 803d aa15 ef39 4b73 253c d818 49bd
00000050: 8d6d 96bc b6fc 2d3d bfb8 34bd 9228 393d
00000060: 1b01 66bd 77b7 b3bc ee1e 9fbd 4cd4 e6bd
00000070: c6ad 2dba f7a9 8fbd 3c9f 1ebb bf24 f53c
00000080: 375b 82bd d8b2 41bd a116 c8bd f8ab c03c
00000090: 81b6 66bc 9c76 d33c 6297 c33d f0b3 96bd
000000a0: 744f 633c 6c2c 89bc 0abb 9dbd e334 de3d
000000b0: ac80 4abc 20fd 2d3c db2d 51bd d8cf 96bd
000000c0: b861 9e3b 649a 023c 51e5 4f3d 573b 883c
000000d0: 41fe 67bd 7ea3 69bd 724a acbd aab2 9fbc
000000e0: 615c bebc 7be0 843d d0e6 1dbd a55f 2fba
000000f0: 5c69 13bc 6210 80bd 8d0a 9c3d 1ecd b33c
00000100: 912f 893d 038f 853c 39bf d83d ec13 5d3d
00000110: f216 0abc 1394 06bd 4e31 27bc cacc 42bc
00000120: 9838 46bd 88bd 27bd 7025 bd3d 9b3a f8bd
00000130: d28f 99bd 75da 81bd 6ac9 b33b 56ea ab3d
00000140: 4f6d c93d 7ef6 30bd 07d7 67bd ebf0 c8bd
00000150: 3574 ffbb 7e0b 8cbd 7599 63bb 1fe5 fa3c
00000160: 6d10 a4ba 7bd9 bcbd cf8e 5fbc 7f31 6f3d
00000170: 5e4c b93d 091c 1d3d 853d f3bc 2217 ce3c
00000180: 93b8 7e3d 1212 9b3d 77fe bdbb e5ad 9c3d
00000190: 39d6 2bbd f27a ad3d b1a8 12bd 5958 bcbd
000001a0: 4e07 06bd b103 8d3d e4e4 223d 2d75 4f3c
000001b0: 46c2 193d 28c0 e73b 95a3 11bd 62ba a53c
000001c0: 6ac0 80bd 78c4 893d 932f 08bc 12ff c6bd
000001d0: ab75 aabd 8227 993d d47c d53d 5343 8c3d
000001e0: dd19 903d 9096 f8bc 070f 8d3c 2a5a 96bd
000001f0: 824b a63c cd73 b7bd 5c58 963d eabe b5bc
00000200: 0016 78bd a86b 8dbd a06e 8cbd b108 9c3c
00000210: 4f51 8d3d 41fb 3d3d c222 2bbc ab03 51bd
00000220: d74c d23c e99c 083d a5bd a7bc fee0 82bd
00000230: efda 0d3d fd87 9a3d bef5 69bc 4141 a4bd
00000240: e428 10bd 0d37 1a3d 1489 ae3d cd1b 8c3c
00000250: 0a1f 813d 7ebd 96bc 879d cbbc 7ad8 843c
00000260: bb6a 7fbd d269 82bd 2242 a03d daae d8bb
00000270: 9b1d 30bd 7b8f bd3c 29a2 003d d317 2fbd
00000280: 8b65 97bd 7463 623d de09 2e3c 1efe 493d
00000290: c38e 9fbd 7e4d 8c3d fc46 83bd 5516 a3bd
000002a0: 2a0e 183d 0a43 cbbc 14bc 98bb e1ac acbd
000002b0: 2a7f 2e3d 325d 16bd 4592 713c 1177 2fbd
000002c0: f139 5ebd 9fdf e5bd 29eb 62bd 3ad5 6bbc
000002d0: f3d6 52bc a004 aebd b191 12bc 9996 ff3c
000002e0: d166 65bc c594 4bbd 9ada 55bd 2acd 8b3d
000002f0: 78a0 bbbd abec 593c e786 84bd 2a0d 88bd
00000300: 9aad 56bc eb96 2bbd 3593 9fbc 9034 aa3d
00000310: cf14 c1bc f8df 343c ac72 0abd 1e30 f43c
00000320: 6a22 93bd 3456 8bbc 3eab 483d 318a 79ba
00000330: ac3f fcbc a672 58bd f076 823d f379 98bd
00000340: a56d 573d c266 403d eb61 ee3b c1d5 b6bd
00000350: a3e6 363d f6ac 673c 0db8 453d 93a3 61bd
00000360: 7a14 693c a5ca 42bd 970f 87bb 8b3c a7bd
00000370: df8c 313d cb0a 63bc e344 87bd f962 b9bc
00000380: 3386 b03d ae75 993d 3faa 1abd 6b0a 73bd
00000390: ca07 b93d aa96 7a3d 1bcb 993d 4151 efbc
000003a0: ec5d 303d 8bc0 41bd a707 2f3d b3c9 a0bd
000003b0: ce8a b13c 6535 71bd 31ff 0dbd 5d4b 68bd
000003c0: 069b a63d 82db 863b 5d8d 2cbd a9f7 a9bc
000003d0: f061 39bd ab3a a83b d87b f43c 7f12 183d
000003e0: 83f5 9bbd f8c8 e3bc 3c89 24bd 36dd 4abd
000003f0: 9503 26bd 1eea 47bc 909f 533d 4bff 9dbc
-0.041954502 -0.0480919 -0.003511653 -0.04153457 -0.07659273 0.0868868 0.053187925 0.027344314
-0.040180016 -0.050823975 0.01996301 -0.06391528 0.0729134 0.05604447 0.08665817 0.035824362
0.06290798 0.00045601773 0.010098289 -0.04909596 -0.018362785 0.042477332 -0.0441215 0.045204706
-0.056153398 -0.021938069 -0.07769571 -0.11270961 -0.00066253205 -0.0701484 -0.0024203798 0.029924748
-0.06365054 -0.0472897 -0.09769941 0.023519501 -0.014081598 0.025813393 0.09550358 -0.07358539
0.013873924 -0.016744815 -0.077016905 0.10849931 -0.012359779 0.010619432 -0.05106912 -0.07363862
0.0048334263 0.00797138 0.050755803 0.016629858 -0.05663896 -0.057040684 -0.08412637 -0.019494373
-0.02323741 0.06488129 -0.038550198 -0.00066899724 -0.008997288 -0.06253125 0.076192 0.021948393
0.06698526 0.016303545 0.10583348 0.053974077 -0.008428322 -0.03285606 -0.010204626 -0.011889646
-0.048393816 -0.040952235 0.09235656 -0.12120553 -0.07498135 -0.063404955 0.005486657 0.083943054
0.09835302 -0.043203823 -0.05660155 -0.098115765 -0.0077958354 -0.068381295 -0.0034728919 0.030626832
-0.0012517102 -0.092211686 -0.013644888 0.058396813 0.09047769 0.038356815 -0.02969242 0.025157515
0.062187742 0.07571806 -0.005798157 0.07650355 -0.041952346 0.084707156 -0.035805408 -0.091965385
-0.03272181 0.0688547 0.03976907 0.012662214 0.03753879 0.0070724674 -0.035556395 0.020230476
-0.062867 0.067269266 -0.008312124 -0.097166196 -0.08323225 0.07478239 0.104242 0.068487786
0.07036183 -0.030345231 0.01721908 -0.07341416 0.020299677 -0.08957634 0.07341072 -0.022185761
-0.060567856 -0.069052994 -0.068570375 0.019047113 0.06900274 0.046382193 -0.010445299 -0.05102889
0.025671406 0.033352766 -0.020476172 -0.0639057 0.03463262 0.07545469 -0.014279781 -0.08020259
-0.035195246 0.037650157 0.08522239 0.0171031 0.06304748 -0.018400904 -0.024855388 0.016216505
-0.062357645 -0.0636784 0.07825114 -0.006612641 -0.042996984 0.023139706 0.031404648 -0.04274733
-0.07392415 0.055270627 0.01062247 0.04931461 -0.077909015 0.06850718 -0.064100236 -0.07963244
0.037122883 -0.02481224 -0.0046610925 -0.084314115 0.04260174 -0.03670997 0.014744346 -0.04283816
-0.054254476 -0.11224293 -0.055400047 -0.014394099 -0.012868631 -0.08496976 -0.008945868 0.03119974
-0.014001564 -0.049702425 -0.052210428 0.06826241 -0.09161466 0.013301055 -0.06471043 -0.06643136
-0.013102913 -0.041891973 -0.019479373 0.08310807 -0.023569493 0.011039726 -0.033800766 0.0298081
-0.07184298 -0.017008878 0.048991434 -0.00095191883 -0.03079208 -0.052843712 0.06370342 -0.07445135
0.0525948 0.046972997 0.0072748563 -0.08927489 0.044653546 0.014140358 0.048271228 -0.055087637
0.014226073 -0.047556538 -0.0041217315 -0.081658445 0.043347236 -0.013857554 -0.06604936 -0.022630202
0.086193465 0.07493149 -0.037760016 -0.059336107 0.09034689 0.06117884 0.075094424 -0.02921355
0.04305832 -0.047302764 0.042731907 -0.07850971 0.021672633 -0.05888881 -0.034667198 -0.056712497
0.08135037 0.004115523 -0.042127002 -0.020747976 -0.045259416 0.005133947 0.02984421 0.037127014
-0.07615187 -0.02780579 -0.04016994 -0.04952737 -0.04053076 -0.012201814 0.051665843 -0.019286772

bias f4 [50]
00000000: f34c 0a3d 65ee cebc 1f08 31bd 7fca a5bb
00000010: cabe 3abd c0a9 623c 4b22 b7bc c253 11bd
00000020: 7716 c7bc 783e 843a 503e efbc b172 0abd
00000030: 3c2f 313c 6a44 3e3d 1f99 66bc 9c59 3abd
00000040: 1464 db3b bb9c bdbb 11c1 823c 269d 8bbc
00000050: f1c0 c33c 30d0 80bb 3046 a1bc 0855 d0bb
00000060: 218d 0dbd 8dfa 113d fe71 53bb a37f 15bc
00000070: eb7d 2dbd 2b6b ee3c 0137 18bc 61ca 4bbc
00000080: 6a62 dc3c bbc9 8c3c 1a73 f4bc 6894 0fbc
00000090: 232c 00bd ad1a a7bc fdbe 2dbd 7b1f 01bc
000000a0: 79e1 96ba 5eee 00ba 41a5 9fbc 7b1c c2bc
000000b0: 5fa4 cbbb 011d 97bc 37d1 c7bc b744 0cbc
000000c0: 7364 1c3d e317 45bd
0.03376479 -0.02526016 -0.043220636 -0.00505954 -0.045592107 0.013834417 -0.02235522 -0.03548027
-0.024302704 0.0010089418 -0.029204518 -0.033800784 0.010814484 0.046451963 -0.014074593 -0.045495614
0.00669528 -0.005786506 0.015961202 -0.017042708 0.023895713 -0.003931068 -0.019686788 -0.0063577928
-0.03455842 0.035639334 -0.003226399 -0.009124669 -0.042356413 0.029103836 -0.009290458 -0.012438388
0.026902396 0.017186036 -0.029840041 -0.00876341 -0.031292092 -0.020398462 -0.04241847 -0.007881041
-0.0011511288 -0.0004918332 -0.019487979 -0.023695221 -0.006214663 -0.018446447 -0.024391754 -0.008561305
0.038181733 -0.048118483

weight f4 [50, 50]
00000000: 679f 303e d1e4 0bbe 6ee6 aa3d 8564 6dbd
00000010: 3b0c ad3d 9a17 1cbe ba73 04be 7b6e 9d3d
00000020: 1b06 3d3e 837c f03d e98e 773e 7245 0e3e
00000030: 6f55 c23c 4e39 553d 6d86 153c 7c8a 9cbd
00000040: dadd 6a3b 4c09 fe3d c78c 6b3c 3dbf 503d
00000050: f876 88bd 9aca 893d c85c ff3d 18ff 743e
00000060: 0404 623e b4cb 09be 0c92 c2bd 6db9 b73a
00000070: 7e7c 1f3e 8d52 24be c0e0 723e cc5c 63be
00000080: 0882 05be e271 f4bd 63b5 8abd 886f 48be
00000090: 2b40 643e 358a c63d 9353 6b3e 55ac 6f3b
000000a0: fcaf 59be 0e39 163e 20f6 5cbe 3847 1e3d
000000b0: 0b64 503d 3ed2 413e c4b2 5b3b b114 39be
000000c0: da99 b13d 04fb 923c 8ab6 f9bd 947b 6ebe
000000d0: ba48 a6bc 8a7c 32bd 8abe 393e b97d 20bd
000000e0: 63cb 6b3e 23de 513e 3cb8 7dbc ec6b 6a3e
000000f0: c4c9 5fbd 8b53 51be 9139 8c3c 68ce c13d
00000100: 4c44 633c 56db d7bd b2f3 903d 32ac 42be
00000110: 1545 a8bd f55b 81bb 02f1 2b3e c540 733e
00000120: c601 293e f343 dd3d 9b59 0dbe b1aa 073e
00000130: 7c3c 773d 5bc5 c03d 43b4 363e 192f b93c
00000140: 498d 803d 3d1c afbd 6ef6 b83d 9907 d13d
00000150: 4d82 cb3b 0cb2 2ebe c6ce 53be 8e56 1abd
00000160: 84cd 42be f6c6 30be dbbe 6fbe 9153 d43d
00000170: 2e7a 32bc b1ef 64be 44d3 ff3c 0bb9 0fbe
00000180: b460 f4bb 0877 2fbe afe7 0cb9 db45 903c
00000190: 54d9 d1bc 2ecc 4bbe 2a06 1dbe 05dd 5dbe
000001a0: 6ea6 1a3e 9af9 22be d5fd ceb7 4fcd 46be
000001b0: 2af3 8e3d 764a a63d 9336 1dbd 1d80 643e
000001c0: 25c1 54be 5366 32be 6db9 d13d c287 5a3d
000001d0: fa0e b6bd 3904 20be fdbc e2bc add4 16be
000001e0: aba0 68be 45e6 4ebe 4560 60be 60b8 cebd
000001f0: 6ae0 233e 5c76 5fbe ae29 2d3e c5b4 37be
00000200: a4d1 683d f463 d73d 22d7 853d 7a0d 273e
00000210: bb73 67be e97a db3d 5a3a 40be 6597 293e
00000220: 6470 65bb 4caa c3bc 25cb b5bd 852d d4bb
00000230: 7d10 b6bd f15e 4e3e f50d 3cbe 5bd7 2e3e
00000240: 6ac3 463e 0f0c 35be e04e c2bd 25cb c13c
00000250: 7505 d03d 0229 55be 6eeb 0ebd 8194 183e
00000260: b674 79be 6bf6 25be 008e 6c3e 0ab5 0fbe
00000270: fee4 72be d080 2c3e 2a53 fcbd d0b6 88bd
00000280: 4460 803e b35f 15be 693f 63bd 3e72 3b3e
00000290: 449f 833d fb91 b23d 7520 7bbd c103 42be
000002a0: 2596 123e 9534 46bd c6a6 3a3e 3ac5 283e
000002b0: a779 07be 58bf 28be ef38 2ebe af48 9a3d
000002c0: ab67 80bd 197f 8a3d 2cf1 c13d 60a0 35be
000002d0: c38f 803d f48d 553e 729f 45be e5fd 693e
000002e0: 985a b23d 5c60 f83d 34f3 1bbc f154 453e
000002f0: ebc8 bf3d c82c cbbd cc57 5fbe 17e2 b0bc
00000300: 3bac 603e 3df1 f4bd e16b 133e 1006 193e
00000310: df4b 22be 28b9 e1bd 1ea7 2ebe 99f2 d63d
00000320: 5c25 923d b190 4f3d a1c9 3ebe e126 5cbe
00000330: f8b5 d23d d099 dcbd 3e45 b23d ed81 0dbe
00000340: f065 2ebd aec5 303e 33a2 36be a632 37be
00000350: 88ae 40be e8e9 a8bd c447 c2ba 03ba 053d
00000360: 36aa dd3d f47f 483e 4b3f 6bbe bf95 cdbd
00000370: de6f cd3d 81c9 9a3b 1091 c6bd a5cb 673d
00000380: e79a 78be 7e6a 503d e4b5 11be 7582 67be
00000390: ba73 b03d 06eb c2bd bdc0 f93a 8a0a 98bd
000003a0: 00fd 3c3e ecf0 173e bb38 833d 0341 e23d
000003b0: 5746 01be 722b 2a3e 6026 953d 7686 8e3d
000003c0: 4ed0 ed3d 715e 5bbe 9f6a f73d 677c 5e3d
000003d0: ec3c 79be a401 de3d 1640 a13d 5c1d 4cbe
000003e0: 514d 44bd 9c1c d13d 1f38 9f3d 3255 f6bd
000003f0: 239b 42be 8314 bcbd 9be5 9fbd 5851 243e
0.17248307 -0.13661505 0.08344732 -0.05795719 0.084495984 -0.15243378 -0.12934771 0.07687088
0.1845936 0.11742499 0.2417561 0.13893679 0.023722379 0.052056603 0.009126288 -0.07643601
0.00358378 0.12404117 0.014376826 0.05096363 -0.066633165 0.06728096 0.124688685 0.23925436
0.22071844 -0.13456613 -0.095005125 0.0014017053 0.15574834 -0.16047116 0.23718548 -0.22203368
-0.13037884 -0.11935784 -0.06772878 -0.19573796 0.22290103 0.0969433 0.229811 0.0036571224
-0.21258539 0.14670202 -0.21578264 0.03864214 0.05087666 0.18927857 0.00335233 -0.180743
0.08671923 0.01794196 -0.1219302 -0.23289329 -0.02029835 -0.0435758 0.18139091 -0.0391824
0.23026805 0.20494895 -0.015485819 0.22892731 -0.054635778 -0.20442025 0.017117294 0.09463197
0.013871264 -0.10539882 0.07077731 -0.19011 -0.08216301 -0.0039477297 0.16791156 0.23755176
0.16504583 0.10803976 -0.13803713 0.13248707 0.060360417 0.094126426 0.17842202 0.022605466
0.06276948 -0.08550308 0.09031378 0.10206527 0.0062106014 -0.17060107 -0.20684347 -0.0376802
-0.1902371 -0.17263398 -0.2341265 0.103675015 -0.010893388 -0.2235706 0.031228669 -0.14035432
-0.007457817 -0.1713525 -0.0001343775 0.017611435 -0.025616325 -0.19902107 -0.15334383 -0.21666344
0.1510255 -0.15915528 -2.4675313e-05 -0.19414257 0.069799736 0.08119671 -0.038382124 0.22314496
-0.20776804 -0.17421846 0.10240445 0.053352125 -0.08889575 -0.15626611 -0.027678007 -0.14729567
-0.2271754 -0.20205028 -0.21911724 -0.100937605 0.16003576 -0.21822494 0.16910431 -0.17940052
0.056840554 0.105171114 0.06535174 0.16313735 -0.22602741 0.107168026 -0.1877226 0.16561659
-0.0035009617 -0.023884915 -0.08876637 -0.006475153 -0.08889864 0.20153405 -0.18364699 0.17074339
0.19410482 -0.17680381 -0.094877005 0.023656437 0.10157291 -0.20816424 -0.034892492 0.149004
-0.24360928 -0.16207282 0.23101044 -0.14033905 -0.23720166 0.16846013 -0.1232055 -0.06675494
0.25073445 -0.14587288 -0.055480395 0.18305299 0.06426862 0.0871925 -0.06131025 -0.18946745
0.14315088 -0.04838999 0.18227682 0.16481486 -0.1323 -0.16479242 -0.17013906 0.075333945
-0.06269773 0.06762523 0.09469828 -0.1773696 0.0627742 0.20854932 -0.19299105 0.2285076
0.08708686 0.12127754 -0.009518433 0.19270684 0.09364494 -0.09920651 -0.21810836 -0.021592183
0.219407 -0.11960075 0.14396621 0.14943719 -0.15849255 -0.11021644 -0.17055938 0.104954906
0.07136032 0.050675098 -0.18631603 -0.21499206 0.10288614 -0.10771525 0.08704613 -0.13819094
-0.042577684 0.17262909 -0.17835312 -0.17890415 -0.18816578 -0.08247739 -0.0014822413 0.032648098
0.10823481 0.1958006 -0.22973363 -0.100383274 0.100311026 0.004723728 -0.09695637 0.056590695
-0.2427784 0.05088281 -0.14229542 -0.22608359 0.08615823 -0.095174834 0.0019054633 -0.07423885
0.18455887 0.14837998 0.06407305 0.11047556 -0.12624489 0.16618136 0.0728271 0.0695924
0.116119966 -0.21422745 0.12080883 0.054317858 -0.24339646 0.10840157 0.078735515 -0.19933075
-0.047925297 0.10210535 0.07774376 -0.120279685 -0.19004492 -0.091836 -0.07807466 0.16046655

bias f4 [50]
00000000: bf05 d73d 75ed a1bc 00b4 b33d 7b1d b1bd
00000010: 2bb3 933d 5c3d e0bc d5df e8bd 4410 0fbd
00000020: ff80 443d c729 42bc ba15 e23d 1205 553d
00000030: 9f3e dbbd 75d8 9dbc 71c8 25bd e9ea ae3b
00000040: a4da 4b3e fba4 b63d c18c c83d 846f 043d
00000050: 5149 dc3d 0ac6 033e 4e41 58bc 8e29 be3c
00000060: 8e4f f9bd 12ee 793c 00bf 863d 50fe 993d
00000070: c2ad bebd 8bc0 27bd 0226 4f3d a360 243d
00000080: 5534 55bd e453 78bd 56e2 8d3d 1497 f2bd
00000090: 6a34 f13c 0d97 d4bd 0c16 abbd c825 e23d
000000a0: cfff 35bd cd1c 923d ae85 38bb c64f da3d
000000b0: 4501 893d 528f 5ebb dd93 7fbc be0c aa3c
000000c0: 2f8a 48bd 5c0b 1f3d
0.10499143 -0.019766549 0.08774567 -0.08648201 0.07211908 -0.027373008 -0.113708176 -0.03492762
0.047974583 -0.011850781 0.110393 0.05200679 -0.107053034 -0.019268254 -0.04047436 0.005338062
0.19907624 0.08918186 0.09792472 0.032332912 0.107561715 0.12868515 -0.013199164 0.023213174
-0.12173377 0.015254514 0.06579399 0.075192094 -0.093104854 -0.040955108 0.050573356 0.040131222
-0.05205186 -0.06062688 0.06927936 -0.11845222 0.029443938 -0.10380373 -0.083538145 0.110423625
-0.04443341 0.071343996 -0.0028155851 0.10659747 0.06689695 -0.0033959937 -0.015599218 0.02075803
-0.048959907 0.038829193
