models/A2_Sports_and_Outdoors_5/revw_model.pth (torch, 320663 bytes, 6 tensors)

weight f4 [50, 768]
-0.019779867 -0.25443938 -0.061896075 0.10482012 0.018840235 -0.009261624 0.053128388 0.021258276
0.10342774 0.021926524 0.04179288 0.002054196 0.009556672 -0.10163159 0.077521116 0.0384887
-0.15138724 0.013111105 0.018106641 0.038923934 0.023485148 -0.09890859 0.11631042 -0.034082454
-0.017735872 -0.23171869 -0.03150951 0.06823907 -0.08288604 0.12464138 0.038002577 0.072388336
0.022065416 0.07148637 -0.06557207 -0.0036449702 0.01279081 -0.10885856 0.04995091 -0.04938136
0.06343872 -0.013610195 -0.0015437182 -0.0053054104 0.07026908 0.07709809 0.16856639 0.10764695
0.33622742 -0.11194538 -0.033466544 0.18414909 -0.07093802 0.07825112 -0.009465752 -0.07976576
0.068145774 -0.018060088 -0.00030350694 -0.12113553 0.0030230235 -0.032314565 -0.08415816 -0.09987238
0.045904007 -0.15730561 -0.095706634 0.03574511 0.017318245 -0.10356793 0.055181693 0.014369114
-0.0496953 0.085457005 -0.0632625 -0.07647051 -0.04203572 0.03765802 0.05223444 0.04915752
0.0033202507 0.014026472 -0.0179159 0.059076723 -0.007889741 0.031079277 -0.10375642 0.031425495
0.070461884 0.05858548 -0.021909978 -0.045035753 -0.2415469 0.07492481 0.047109757 0.0021327604
-0.0027155534 -0.05656592 -0.02552335 0.017009668 0.094960265 -0.061804593 -0.05574128 -0.20715746
-0.12500061 0.049786784 0.02398222 -0.05160991 0.024248743 0.07638871 -0.06849512 0.06603608
-0.051403403 -0.06590433 -0.02883563 0.1509731 -0.0066741393 0.0062159593 0.06786904 0.07024163
-0.07741321 0.02437567 -0.07805124 0.07629781 -0.10975269 0.03555324 0.008006014 0.01142193
-0.006815882 0.025720213 0.02034958 0.0760359 -0.045136783 -0.03154094 0.024714543 -0.028307347
-0.010112951 0.07486939 0.080165505 0.14953043 -0.034079608 -0.15313712 0.060988043 -0.11080316
0.07291496 0.0882918 -0.012580145 0.122895084 -0.0059883483 0.0154184215 -0.19528826 -0.012441574
-0.035005827 -0.08161263 -0.038328193 -0.010303448 -0.02823699 -0.046630047 0.01837946 0.042896245
-0.021380205 0.057887405 0.043984376 -0.055998016 0.042209566 0.034944758 -0.0067321397 -0.042869575
0.09167169 -0.03217961 -0.07546207 -0.005973863 0.016621921 -0.0013370938 -0.06337006 0.095516086
-0.009959093 -0.08215988 -0.026535513 -0.030093433 -0.056650065 -0.055666756 0.16636278 -0.110184506
-0.077184714 0.004873426 -0.08170563 -0.06311201 0.099709496 -0.0138827665 0.025786866 0.050236013
0.03341769 -0.028292553 -0.07921874 -0.065118186 -0.0045371265 0.019260185 -0.018033657 -0.024674134
-0.015621611 -0.047204997 0.01037288 -0.024535485 0.053540066 -0.10088385 0.04243665 -0.10723268
-0.043304525 0.016232267 0.0017984617 -0.046180252 -0.095137544 0.040292144 -0.0067347633 -0.05100102
0.0044479645 0.35726777 -0.011821881 0.036277078 -0.0010168062 -0.12609486 -0.10474017 0.07517886
-0.05857332 -0.050654612 0.003099846 0.011461752 -0.03066031 -0.08640656 -0.1528864 0.020889537
0.06483471 -0.031633243 -0.13919382 0.15702088 -0.09976361 0.008426952 -0.027573345 -0.077567294
-0.08638033 0.021817902 -0.08838515 0.060898956 0.03026434 -0.1395432 -0.08953229 -0.0696178
-0.013586026 0.05491991 0.044202738 -0.10124145 -0.0397268 -0.018972302 0.014197901 0.014067584
00000000: 6309 a2bc e145 82be bd86 7dbd eeab d63d
00000010: d656 9a3c 11be 17bc 279d 593d d625 ae3c
00000020: ecd1 d33d 419f b33c 032f 2b3d b19f 063b
00000030: 9693 1c3c 3924 d0bd 64c3 9e3d 54a6 1d3d
00000040: 4205 1bbe f6cf 563c 6154 943c b46e 1f3d
00000050: ed63 c03c 9690 cabd 2834 ee3d 0b9a 0bbd
00000060: d24a 91bc aa47 6dbe 1e10 01bd edc0 8b3d
00000070: 28c0 a9bd fb43 ff3d 97a8 1b3d 5640 943d
00000080: 88c2 b43c 7267 923d a64a 86bd 74e0 6ebb
00000090: 8c90 513c 3df1 debd 5399 4c3d 1c44 4abd
000000a0: 29ec 813d 4cfd 5ebc 9656 caba 02d9 adbb
000000b0: 3ce9 8f3d 9ae5 9d3d ab9c 2c3e 0176 dc3d
000000c0: 0026 ac3e 9f43 e5bd 3714 09bd 9491 3c3e
000000d0: f447 91bd 2042 a03d 3e16 1bbc 3b5c a3bd
000000e0: 0390 8b3d c0f2 93bc 0320 9fb9 e815 f8bd
000000f0: eb1d 463b 475c 04bd 1d5b acbd e489 ccbd
00000100: d705 3c3d b914 21be d701 c4bd 7769 123d
00000110: fede 8d3c 6c1b d4bd 3306 623d 6f6c 6b3c
00000120: 4d8d 4bbd 1504 af3d c58f 81bd 929c 9cbd
00000130: a62d 2cbd 4c3f 1a3d c8f3 553d 6559 493d
00000140: 9098 593b 4acf 653c 5ec4 92bc 6ffa 713d
00000150: f943 01bc f899 fe3c 3f7e d4bd 05b8 003d
00000160: 524e 903d 54f7 6f3d 8e7c b3bc 6977 38bd
00000170: 1258 77be 2e72 993d 29f6 403d c8c5 0b3b
00000180: 6df7 31bb abb1 67bd 5816 d1bc dc57 8b3c
00000190: 877a c23d d026 7dbd f850 64bd 1621 54be
000001a0: 2900 00be 3aed 4b3d 5c76 c43c ea64 53bd
000001b0: 4da5 c63c af71 9c3d 2b47 8cbd ed3d 873d
000001c0: 608c 52bd d9f8 86bd b338 ecbc b198 1a3e
000001d0: bdb2 dabb 3faf cb3b ecfe 8a3d d8da 8f3d
000001e0: d18a 9ebd 7caf c73c 54d9 9fbd 0742 9c3d
000001f0: 05c6 e0bd 46a0 113d a82b 033c 0c23 3b3c
00000200: c357 dfbb 32b3 d23c 2ab4 a63c b6b8 9b3d
00000210: 59e1 38bd 1331 01bd 2776 ca3c cfe4 e7bc
00000220: cab0 25bc 1f55 993d d02d a43d 811e 193e
00000230: 0f97 0bbd facf 1cbe 99ce 793d c4ec e2bd
00000240: 7054 953d 55d2 b43d f41c 4ebc 6bb0 fb3d
00000250: e839 c4bb 8c9d 7c3c a5f9 47be bed7 4bbc
00000260: 4562 0fbd 8624 a7bd 06fe 1cbd cbcf 28bc
00000270: 4351 e7bc 26ff 3ebd 8590 963c f9b3 2f3d
00000280: 8a25 afbc 581b 6d3d f628 343d 2d5e 65bd
00000290: f0e3 2c3d 3c22 0f3d 4899 dcbb 0298 2fbd
000002a0: 5ebe bb3d c4ce 03bd dc8b 9abd 65c0 c3bb
000002b0: b22a 883c 6c41 afba 29c8 81bd f09d c33d
000002c0: 772b 23bc 7043 a8bd 0161 d9bc 8186 f6bc
000002d0: e609 68bd d302 64bd 015b 2a3e 6aa8 e1bd
000002e0: 0513 9ebd 43b1 9f3b 4855 a7bd df40 81bd
000002f0: 7e34 cc3d 8b74 63bc fa3e d33c 47c4 4d3d
00000300: fde0 083d c9c5 e7bc 6f3d a2bd af5c 85bd
00000310: 2dac 94bb 89c7 9d3c 52bb 93bc 6921 cabc
00000320: c9f1 7fbc 075a 41bd 03f3 293c a4fe c8bc
00000330: d44c 5b3d 319c cebd 0dd2 2d3d cf9c dbbd
00000340: 1660 31bd 88f9 843c 5cba eb3a 8127 3dbd
00000350: 79d7 c2bd 6009 253d 4aaf dcbb 72e6 50bd
00000360: 3bc0 913b cdeb b63e 90b0 41bc 4697 143d
00000370: 5b46 85ba 031f 01be 0482 d6bd 60f7 993d
00000380: 94ea 6fbd 367b 4fbd c926 4b3b 12ca 3b3c
00000390: 552b fbbc ecf5 b0bd 418e 1cbe 8920 ab3c
000003a0: 0fc8 843d dc91 01bd d388 0ebe 15ca 203e
000003b0: dd50 ccbd 3311 0a3c 7fe1 e1bc 9adb 9ebd
000003c0: 2ce8 b0bd 75bb b23c 4603 b5bd 2f71 793d
000003d0: ecec f73c 6ae4 0ebe b55c b7bd c793 8ebd
000003e0: ec97 5ebc b3f3 603d ee0d 353d ad57 cfbd
000003f0: 92b8 22bd cd6b 9bbc 509e 683c b97b 663c

bias f4 [50]
-0.0033083134 -0.0059682126 0.50909764 -0.0025827356 -0.00024830588 -0.020777386 -0.0013029024 -0.0033780448
-0.04578042 -0.078164384 0.4745469 -0.0004117782 -0.00047684164 -0.0020324655 -0.0015396085 -0.0049545937
-0.0026529531 -0.010493335 -0.0034154882 -0.005993113 0.07609064 -0.0022231434 -0.025877364 -0.01053438
-0.017186506 -0.006449164 -0.0024928034 -0.040402755 -0.0022071789 -0.09321579 -0.0052741985 -0.016745666
-0.0026870982 -0.007820375 -0.0012028262 0.4965328 -0.0009794649 0.49567062 -0.0053465012 -0.008199347
-0.0370257 0.49108166 -0.018773168 -0.02181479 0.52729815 0.5302684 -0.0030153964 0.51687056
-0.059092447 -0.0006732533
00000000: 4ad0 58bb ff90 c3bb 3954 023f 1d43 29bb
00000010: 0d2f 82b9 5635 aabc 26c6 aaba 3062 5dbb
00000020: 4084 3bbd a614 a0bd d0f7 f23e efe3 d7b9
00000030: 9a00 fab9 1d33 05bb b0cc c9ba 255a a2bb
00000040: 2bdd 2dbb 3dec 2bbc 62d6 5fbb e061 c4bb
00000050: 69d5 9b3d 28b2 11bb c4fc d3bc 6498 2cbc
00000060: b7ca 8cbc 8253 d3bb 4d5e 23bb 5c7d 25bd
00000070: 51a6 10bb ece7 bebd 2fd3 acbb 352e 89bc
00000080: 071a 30bb 0821 00bc 26a8 9dba 8c39 fe3e
00000090: 6361 80ba 8ac8 fd3e b431 afbb 8e56 06bc
000000a0: 43a8 17bd 0e6f fb3e 30ca 99bc eeb4 b2bc
000000b0: 03fd 063f abbf 073f f59d 45bb a151 043f
000000c0: ec0a 72bd 447d 30ba

weight f4 [50, 768]
0.054645535 0.030534705 -0.07897407 0.009581024 0.025505764 0.035832174 -0.080533326 -0.005450937
-0.052117966 0.08104294 -0.014629128 -0.023193453 0.06916148 0.030781202 0.07322157 0.005197002
-0.073526576 -0.024092354 0.027908387 0.025031507 -0.098587885 0.099199764 0.094507575 0.061384756
-0.07384469 0.08838272 0.056897968 -0.044422228 -0.071592964 0.033608966 -0.066751555 -0.09040054
-0.010953792 0.07399142 0.033457134 0.042850096 0.105148725 -0.00047946168 -3.1955442e-05 -0.010371337
-0.045817394 0.022783648 -0.010226089 -0.0011805265 0.03828005 0.004412624 0.07787478 -0.06149761
-0.049511857 -0.015345556 0.09390699 0.039259296 0.11506292 -0.0020083934 -0.057292484 -0.03212844
0.0616195 -0.053392354 0.060787242 -0.0020130498 -0.0953579 0.122121684 -0.045476902 -0.058332402
-0.09366503 -0.06463042 -0.016197769 -0.011858434 0.025359692 -0.045663893 -0.028871596 -0.00081138493
0.064690694 -0.027306601 0.022949426 0.043247703 -0.030522391 -0.07546919 0.04328049 0.053079676
-0.018504692 -0.09023852 0.06708979 -0.10612165 0.02191826 0.017583523 0.05038903 -0.041507255
-0.006265785 -0.015513948 0.0082555 -0.01910413 -0.036137644 -0.023030585 -0.11183363 0.029023888
-0.019688994 -0.03952208 0.04191629 -0.052876204 -0.02528745 0.0772699 0.0012370154 0.0015708
-0.07105078 -0.042979434 -0.06915297 -0.023317859 0.030253349 0.01239947 0.031634502 -0.034600083
-0.003388458 -0.0008215821 0.100808576 -0.08186197 0.021659104 0.02519174 -0.08175586 0.024889817
0.0766813 0.059026323 -0.0058855116 -0.05859881 0.03491939 0.057404786 -0.036796246 -0.08739167
0.06248687 -0.0050136973 0.094234996 -0.03606177 -0.011709522 0.07116164 0.06769167 -0.06249395
-0.01265759 0.0023676967 -0.015006865 -0.062205676 -0.013680622 0.045929484 -0.021530706 0.06839526
-0.014810554 0.037696652 0.019855807 -0.042806268 -0.072098985 -0.05656949 0.027076729 0.07259983
0.035845995 -0.060758907 -0.013221774 -0.024995448 0.020134559 -0.093035854 -0.014522557 -0.01266551
0.052741464 0.02805181 0.06961162 -0.0008435766 0.02510595 0.02141254 -0.060732305 0.005567213
-0.020316835 0.034717675 -0.018203763 0.07490802 0.020118356 0.102196366 0.021613529 0.04506325
0.056891706 -0.026529351 0.10259551 0.017380675 0.0929483 0.040499765 0.06537391 0.019938357
-0.021537615 0.015235433 0.03167371 0.12142148 0.027030276 -0.02189375 0.08646454 -0.039338984
0.0036369662 -0.06921699 -0.032690905 0.035585083 0.045997553 -0.005681334 -0.02094747 -0.0010490671
-0.0022208716 0.05979342 -0.09149471 0.018226476 0.099547 -0.059249606 -0.034858033 -0.08547869
-0.0042811804 -0.05603104 0.08497215 -0.06595837 -0.016546357 0.04740993 0.007628375 0.08933242
-0.007323932 0.012303292 -0.01970051 0.004116213 0.026418013 -0.03314376 -0.044840395 -0.052398283
0.051593196 0.0072985752 0.037525848 -0.010390143 -0.04099347 -0.02327373 0.0076669315 0.034799486
-0.070716806 -0.052886125 -0.09670168 0.0031866594 0.0590317 0.023529697 -0.073685855 -0.04384559
0.11710655 -0.059450753 -0.02487133 -0.0965878 -0.07917756 0.07239455 -0.009489928 0.00062398915
0.04908282 0.015869444 0.07780557 -0.027378893 -0.051656608 0.0867584 0.061192848 -0.02550511
00000000: ffd3 5f3d eb23 fa3c 28bd a1bd baf9 1c3c
00000010: 77f1 d03c c2c4 123d a8ee a4bd c69d b2bb
00000020: a679 55bd d7f9 a53d 03af 6fbc 3200 bebc
00000030: 89a4 8d3d dc28 fc3c 31f5 953d 9d4b aa3b
00000040: 1a95 96bd 545d c5bc 21a0 e43c e00e cd3c
00000050: 72e8 c9bd 3f29 cb3d 308d c13d 956e 7b3d
00000060: e33b 97bd 0002 b53d d80d 693d 15f4 35bd
00000070: 559f 92bd 8ea9 093d 0ab5 88bd eb23 b9bd
00000080: 8977 33bc d088 973d 590a 093d 9583 2f3d
00000090: 3758 d73d 4260 fbb9 e507 06b8 8aec 29bc
000000a0: 05ab 3bbd c6a4 ba3c 538b 27bc e5bb 9aba
000000b0: 8bcb 1c3d c697 903b d07c 9f3d ebe4 7bbd
000000c0: f2cc 4abd ed6b 7bbc 4f52 c03d 5bce 203d
000000d0: 1ca6 eb3d 409f 03bb 86ab 6abd 1c99 03bd
000000e0: bb64 7c3d f1b1 5abd 0bfc 783d 5fed 03bb
000000f0: 014b c3bd ef1a fa3d fd45 3abd f5ed 6ebd
00000100: 74d3 bfbd f45c 84bd 2fb1 84bc e149 42bc
00000110: 21bf cf3c 100a 3bbd 2084 ecbc 1fb3 54ba
00000120: 8e7c 843d 18b2 dfbc 6f00 bc3c 8124 313d
00000130: 180a fabc 978f 9abd e246 313d 136a 593d
00000140: 2797 97bc f9ce b8bd 5f66 893d 4f56 d9bd
00000150: ec8d b33c 520b 903c ba64 4e3d 8303 2abd
00000160: 3751 cdbb 372e 7ebc 1442 073c 4480 9cbc
00000170: 1105 14bd a3aa bcbc 0809 e5bd 81c3 ed3c
00000180: d04a a1bc e8e1 21bd 6ab0 2b3d b894 58bd
00000190: a027 cfbc ae3f 9e3d 5923 a23a 4de3 cd3a
000001a0: 1283 91bd 340b 30bd 13a0 8dbd 1805 bfbc
000001b0: dfd5 f73c 2627 4b3c 2e93 013d d1b8 0dbd
000001c0: e410 5ebb 715f 57ba ba74 ce3d 40a7 a7bd
000001d0: 6f6e b13c e85e ce3c 9e6f a7bd bbe5 cb3c
000001e0: 160b 9d3d 96c5 713d 40db c0bb 4e05 70bd
000001f0: a207 0f3d 4821 6b3d a9b7 16bd 67fa b2bd
00000200: 3bf2 7f3d f149 a4bb 47fe c03d 82b5 13bd
00000210: 4cd9 3fbc 32bd 913d eea1 8a3d a8f9 7fbd
00000220: c861 4fbc 5c2b 1b3b 5bdf 75bc 61cb 7ebd
00000230: b024 60bc 8e20 3c3d 2a61 b0bc d012 8c3d
00000240: f7a7 72bc ce67 1a3d a5a8 a23c a055 2fbd
00000250: a2a8 93bd 69b5 67bd 04d0 dd3c 38af 943d
00000260: 40d3 123d 55de 78bd 24a0 58bc 41c3 ccbc
00000270: 3bf1 a43c 9589 bebd 05f0 6dbc 0083 4fbc
00000280: 6f07 583d e9cc e53c 8990 8e3d 7823 5dba
00000290: feaa cd3c 5a69 af3c 70c2 78bd 2b6d b63b
000002a0: 7e6f a6bc 1f34 0e3d 0f20 95bc 6069 993d
000002b0: 40cf a43c 544c d13d db0e b13c 3e94 383d
000002c0: 4707 693d 1554 d9bc 981d d23d eb61 8e3c
000002d0: ae5b be3d 15e3 253d c2e2 853d c455 a33c
000002e0: a76f b0bc 0a9e 793c 4bbc 013d d3ab f83d
000002f0: 996e dd3c 865a b3bc 5214 b13d ea21 21bd
00000300: 2b5a 6e3b a3c1 8dbd e6e6 05bd aac1 113d
00000310: ee67 3c3d 7c2a babb 079a abbc da80 89ba
00000320: 0b8c 11bb f2e9 743d 9461 bbbd b14f 953c
00000330: 4cdf cb3d b7af 72bd 4cc7 0ebd 740f afbd
00000340: 2549 8cbb ce80 65bd e105 ae3d 2f15 87bd
00000350: 3a8c 87bc ea30 423d 73f7 f93b eaf3 b63d
00000360: 98fd efbb bf93 493c f762 a1bc 4ce1 863b
00000370: 976a d83c c0c1 07bd 90aa 37bd 959f 56bd
00000380: 6353 533d e328 ef3b b4b4 193d 6b3b 2abc
00000390: c5e8 27bd 8da8 bebc e23a fb3b e889 0e3d
000003a0: f9d3 90bd 1f9f 58bd 880b c6bd 46d7 503b
000003b0: 39cb 713d 5ac1 c03c 9ce8 96bd 6f97 33bd
000003c0: 8fd5 ef3d a282 73bd f6be cbbc d3cf c5bd
000003d0: d827 a2bd 9843 943d a57b 1bbc 3493 233a
000003e0: 110b 493d a300 823c 8758 9f3d b349 e0bc
000003f0: e195 53bd 63ae b13d 5aa5 7a3d 18f0 d0bc

bias f4 [50]
-0.008581426 0.59584844 -0.024952162 -0.009947992 -0.0135102365 -0.009009681 -0.0063466937 -0.01995271
-0.008685844 -0.0302755 0.75564426 -0.008096905 -0.00090649095 -0.017012026 -0.018310448 -0.033694655
0.6681676 -0.00030799437 -0.0346046 0.7887461 0.73478806 -0.025248198 -0.023344774 -0.07396098
-0.033788517 -0.043463808 0.69487095 -0.053253252 -0.040844858 0.68540907 0.85012084 0.035653774
-0.010373386 -0.021839334 -0.08430349 -0.020234475 -0.03296833 0.6314221 -0.020228297 -0.035627715
0.63495666 0.69388455 -0.030687785 -0.036597367 -0.035458542 -0.02111686 0.68653834 -0.011196385
-0.025914289 -0.03338082
00000000: 1c99 0cbc 8689 183f 7a68 ccbc e7fc 22bc
00000010: 0a5a 5dbc 579d 13bc edf7 cfbb de73 a3bc
00000020: 124f 0ebc 5304 f8bc e771 413f e2a8 04bc
00000030: 94a1 6dba ce5c 8bbc cbff 95bc 6803 0abd
00000040: 080d 2b3f 4e7a a1b9 8ebd 0dbd 44eb 493f
00000050: 121b 3c3f 4fd5 cebc 8a3d bfbc db78 97bd
00000060: d465 0abd 1b07 32bd 10e3 313f 1520 5abd
00000070: f04c 27bd f876 2f3f 85a1 593f b109 123d
00000080: 22f5 29bc 67e8 b2bc 4fa7 acbd c5c2 a5bc
00000090: cd09 07bd e1a4 213f d0b5 a5bc 5eee 11bd
000000a0: 858c 223f 6ba2 313f f364 fbbc 1fe7 15bd
000000b0: fa3c 11bd 44fd acbc fac0 2f3f 0b71 37bc
000000c0: 344a d4bc 54ba 08bd

weight f4 [50, 50]
-0.13859975 -0.21086429 0.07151863 0.07512576 0.23921253 0.13525599 0.11906003 -0.15409762
-0.14195146 0.0764045 0.25203615 -0.0918715 0.067311406 -0.17045362 0.20555335 0.20441554
-0.007472306 0.21873412 -0.016736627 -0.069695055 -0.23486242 -0.21654029 -0.1953342 0.2327998
-0.11588619 0.18892696 -0.13889672 -0.015215064 -0.17001928 0.0662183 0.07547614 -0.016514271
0.15909997 -0.1923072 -0.2053689 -0.12329063 0.088249646 0.24796955 0.22496738 0.13755211
0.0911992 0.17632656 -0.034978125 0.2217986 -0.23334976 -0.113477446 0.03503775 0.17560154
-0.09567006 0.18202248 0.024634155 -0.19160794 -0.33572164 -0.05083077 0.17841402 -0.052620232
-0.02342228 0.13832594 0.23663577 -0.21516761 -0.18619244 0.19192953 -0.23312017 -0.08132205
0.1506776 0.19715619 -0.005223826 -0.20303151 -0.023163423 -0.2534266 0.038174205 -0.16930622
-0.12880436 0.21553478 -0.12978202 -0.07165234 0.15626489 -0.1945953 -0.27297014 -0.13496707
0.009759983 -0.18697578 0.0913934 0.14005484 -0.16351716 -0.13222268 0.004858581 -0.26937824
0.03351634 0.15266205 0.22081915 -0.29051957 -0.12884243 0.0009262966 -2.3267538e-07 -0.16913044
0.19800097 0.06799368 -0.15191364 -0.1131237 0.048429064 -0.17899801 0.20300302 0.063624114
0.14521122 -0.16819973 -0.06693778 -0.11430965 -0.11312312 -0.018416515 0.015767746 -0.09716341
0.14268354 -0.17155717 0.035186164 0.024072489 -0.0841926 0.048196115 0.066598035 -0.076919354
0.06431602 -0.22349471 0.08586764 0.084088914 -0.084756106 -0.14578287 0.23340061 -0.069277
0.19846278 -0.12687539 -0.087537885 -0.1362182 0.19041175 0.16727275 -0.16473383 0.14434029
-0.17982277 0.20608161 -0.14680295 -0.2096775 -0.044680107 -0.014137313 0.22285752 0.24722949
0.27115247 0.10167518 0.034643214 0.23068126 0.15568696 0.05228703 0.22567567 0.21632335
0.16506322 -0.17400534 0.2581502 -0.17789134 0.24090226 0.014885677 0.124378055 -0.13823925
0.28370437 0.1032003 0.23777096 -0.1930849 0.14482352 0.2836912 -0.097410165 -0.05096561
0.05684448 -0.03326007 0.104228996 -0.0004074926 0.18730584 0.031625725 -0.034394436 0.2861056
0.16911855 -0.047897127 -0.08204734 0.20228094 0.06724086 -0.06480454 -0.026640816 0.2677046
0.19226913 0.13275474 0.027364973 0.104147255 0.019574493 0.04577775 -0.14491192 0.13110885
-0.2666384 -0.032738462 0.067414574 0.28717667 0.17979933 -0.029746354 0.01988685 0.18373354
0.3256451 0.3002694 0.5293742 0.09532482 0.2333656 0.1500415 0.117912814 0.14405546
0.21322298 0.0343326 0.707106 0.30809408 0.28512713 -0.05163339 0.17000836 -0.08730922
0.05274674 -0.06741483 0.24593101 0.32360032 0.14784531 -0.08764909 0.010477539 0.38883466
0.18547998 0.19957784 0.29051048 0.26077008 -0.11057649 0.031166425 0.11195195 0.1438218
-0.12216453 -0.028877407 0.27644396 0.332176 0.05732181 0.5011549 -0.21099126 -0.08226186
-0.18174233 0.5302045 -0.023800971 0.2996607 0.5936257 0.34817436 0.013676317 0.43850037
0.10663679 -0.026936067 -0.18178445 -0.029551603 -0.12148492 0.08828378 0.007896919 -0.14381291
00000000: 18ed 0dbe cfec 57be 5c78 923d 89db 993d
00000010: 21f4 743e 8c80 0a3e bfd5 f33d c4cb 1dbe
00000020: b95b 11be f679 9c3d e20a 813e 2027 bcbd
00000030: 90da 893d 658b 2ebe 947c 523e 4f52 513e
00000040: 3fda f4bb d6fb 5f3e 401b 89bc 48bc 8ebd
00000050: c67f 70be bdbc 5dbe b005 48be 1263 6e3e
00000060: bd55 edbd 1276 413e f13a 0ebe 9b48 79bc
00000070: 8919 2ebe 769d 873d 3c93 9a3d f048 87bc
00000080: 1aeb 223e 2eec 44be 3a4c 52be cc7f fcbd
00000090: 3bbc b43d bbeb 7d3e d95d 663e 76da 0c3e
000000a0: a5c6 ba3d f38e 343e 3945 0fbd 2c1f 633e
000000b0: 3df3 6ebe dd66 e8bd be83 0f3d e4d0 333e
000000c0: aaee c3bd 1a64 3a3e 91cd c93c df34 44be
000000d0: b5e3 abbe ed33 50bd 2ab2 363e 5088 57bd
000000e0: 15e0 bfbc 51a5 0d3e a650 723e e654 5cbe
000000f0: 3ba9 3ebe 2d89 443e 0eb7 6ebe 2d8c a6bd
00000100: 3b4b 1a3e 50e3 493e a12c abbb 7ee7 4fbe
00000110: 38c1 bdbc 22c1 81be 8e5c 1c3d 9c5e 2dbe
00000120: 4ae5 03be 26b5 5c3e 94e5 04be 76be 92bd
00000130: e703 203e fe43 47be bec2 8bbe cf34 0abe
00000140: 56e8 1f3c 9476 3fbe 772c bb3d 896a 0f3e
00000150: 0b71 27be 6265 07be bb34 9f3b f2eb 89be
00000160: 6e48 093d 7153 1c3e 6a1e 623e fbbe 94be
00000170: 45ef 03be b6d2 723a 52d5 79b4 8830 2dbe
00000180: c4c0 4a3e 4540 8b3d 408f 1bbe 66ad e7bd
00000190: 8e5d 463d 414b 37be 06e0 4f3e 5c4d 823d
000001a0: 40b2 143e 8d3c 2cbe ad16 89bd 2e1b eabd
000001b0: 18ad e7bd 3bde 96bc 5c2b 813c 9cfd c6bd
000001c0: a21b 123e afac 2fbe 5e1f 103d ab33 c53c
000001d0: 2b6d acbd 4a69 453d 8d64 883d e587 9dbd
000001e0: 1eb8 833d ccdb 64be 60db af3d cf36 ac3d
000001f0: 9c94 adbd 1b48 15be 9200 6f3e 1ae1 8dbd
00000200: d439 4b3e 9feb 01be 1047 b3bd c97c 0bbe
00000210: 4cfb 423e 8c49 2b3e fcaf 28be f1cd 133e
00000220: 7623 38be 0f07 533e 8353 16be b3b5 56be
00000230: 7d02 37bd 30a0 67bc c334 643e ba29 7d3e
00000240: 7fd4 8a3e 143b d03d 0be6 0d3d b537 6c3e
00000250: 676c 1f3e ed2a 563d 8617 673e de83 5d3e
00000260: 5506 293e 752e 32be 432c 843e 2629 36be
00000270: 15af 763e 0ee3 733c ecb9 fe3d 978e 0dbe
00000280: b341 913e ae5a d33d 3b7a 733e 0cb8 45be
00000290: 9e4c 143e f93f 913e fb7e c7bd 51c1 50bd
000002a0: c2d5 683d b63b 08bd 0376 d53d bba4 d5b9
000002b0: 1acd 3f3e fa89 013d 2ee1 0cbd 6f7c 923e
000002c0: 6a2d 2d3e c72f 44bd 7008 a8bd bc22 4f3e
000002d0: 93b5 893d 3eb8 84bd d73d dabc 9410 893e
000002e0: 33e2 443e dcf0 073e 822c e03c 284b d53d
000002f0: b05a a03c 7381 3b3d ca63 14be 6641 063e
00000300: d484 88be c418 06bd a710 8a3d d208 933e
00000310: 511d 383e a0ae f3bc bfe9 a23c a524 3c3e
00000320: f4ba a63e e9bc 993e 1185 073f a939 c33d
00000330: 64f7 6e3e 7ba4 193e 467c f13d 4683 133e
00000340: 2057 5a3e 57a0 0c3d e604 353f 82be 9d3e
00000350: 2ffc 913e 897d 53bd ac16 2e3e 2dcf b2bd
00000360: f70c 583d c910 8abd 57d5 7b3e f1ae a53e
00000370: c364 173e 5e81 b3bd fca9 2b3c 5615 c73e
00000380: 77ee 3d3e 225e 4c3e cabd 943e a883 853e
00000390: ed75 e2bd bb50 ff3c 1047 e53d 0646 133e
000003a0: 6631 fabd 5090 ecbc 108a 8d3e f912 aa3e
000003b0: 46ca 6a3d b04b 003f 180e 58be e878 a8bd
000003c0: a91a 3abe 7bbb 073f 41fa c2bc 216d 993e
000003d0: dbf7 173f e943 b23e a212 603c 1f83 e03e
000003e0: 6464 da3d 07a9 dcbc b425 3abe 3416 f2bc
000003f0: 16cd f8bd 20ce b43d 1462 013c b143 13be

bias f4 [50]
0.046747427 0.0444519 -0.07222961 0.20549162 0.3303565 0.08261107 0.27315554 0.13763528
0.21187344 0.0059412722 -0.05634884 0.2505594 -0.13431749 -0.08085844 0.075491786 -0.36415225
0.09548421 0.07142808 0.095454484 -0.012762832 -0.12660635 0.04953458 -0.06414616 -0.06259901
0.22315598 -0.0101378355 0.054257747 0.074058965 -0.111769594 0.0019902035 -0.0055496297 0.257842
0.086721905 0.36683992 0.2133924 0.041284494 -0.045079287 0.008191312 0.1588685 0.17135103
0.011599951 -0.10980073 0.3251413 0.14991868 0.069336325 -0.07473441 -0.034902286 0.14219327
-0.105539784 0.04456104
00000000: 3b7a 3f3d 3213 363d 1eed 93bd 656c 523e
00000010: 7d24 a93e fe2f a93d 0bdb 8b3e 43f0 0c3e
00000020: 5af5 583e 01af c23b 0bce 66bd 5249 803e
00000030: 868a 09be 1c99 a5bd 709b 9a3d 2a72 babe
00000040: 3a8d c33d e348 923d a47d c33d 331b 51bc
00000050: 18a5 01be c6e4 4a3d 105f 83bd e933 80bd
00000060: 0083 643e 2a19 26bc 5f3d 5e3d 3aac 973d
00000070: 75e7 e4bd 136e 023b abd9 b5bb de03 843e
00000080: 419b b13d 71d2 bb3e 8a83 5a3e ee19 293d
00000090: 0fa5 38bd da34 063c 6dae 223e a576 2f3e
000000a0: b90d 3e3c 35df e0bd ec78 a63e 4884 193e
000000b0: 3400 8e3d 5b0e 99bd b3f5 0ebd 1d9b 113e
000000c0: 3e25 d8bd a385 363d
