models/A2_Health_and_Personal_Care_5/revw_model.pth (torch, 320869 bytes, 6 tensors)

weight f4 [50, 768]
0.03491793 0.0635917 -0.09464868 -0.003226308 -0.0973832 -0.06108132 -0.030494418 0.017151233
-0.017450301 0.01705362 -0.08596499 0.04152062 -0.04160733 -0.05616014 0.02094469 -0.049191117
0.07553766 -0.040444776 0.004656081 -0.050052226 -0.017367559 -0.026567347 0.060006615 0.052781496
-0.02446007 -0.065736845 0.073395126 -0.017938055 -0.035608873 0.053960297 -0.019451069 0.041021615
0.013558442 -0.030509794 -0.02221384 0.013528552 0.0059559452 -0.05807553 0.025198812 -0.014996364
0.047234137 -0.0106771905 -0.023123268 -0.012034394 -0.039100192 0.04647914 -0.064180605 -0.015650392
0.028434716 0.041378114 0.047495753 -0.003974417 -0.01487301 0.07806589 0.02382866 -0.0021565058
-0.037718114 -0.0077712187 0.019717615 -0.05575725 0.05022108 0.07545016 -0.05018383 0.0070933774
-0.054752093 -0.10971661 -0.022648206 0.030513884 0.103644684 -0.004973397 0.06920741 -0.07188948
0.09292795 0.029018946 -0.0247294 0.09794701 0.032764163 -0.027628528 -0.044942584 -0.036703333
0.02304724 0.01312263 -0.03821655 -0.07933628 -0.03261002 0.0061737597 0.0014978243 0.035677537
0.014959785 0.011697218 -0.040011607 0.0033004605 -0.057965897 -0.003403846 0.007881837 0.09951442
0.033016343 -0.048878122 -0.007889056 0.049596455 -0.09115945 0.102490634 0.030941831 -0.09010374
0.055932764 0.052573636 0.060422964 -0.032104217 -0.07384132 0.042107943 0.053025104 0.06096312
-0.071701586 0.011159044 0.051633857 -0.029384354 -0.08203992 0.06649968 -0.06592547 0.047597133
0.017371537 0.08286147 0.044526204 -0.050553814 -0.023579722 -0.001169474 0.019337025 -0.008750254
-0.051595192 -0.06654099 -0.027091002 -0.022517584 0.08846 0.05031922 0.07883907 -0.07211965
-0.027891776 0.11005398 0.061390277 0.0005672227 -0.010099507 0.043438982 0.0032824588 0.03958247
-0.016247328 -0.0625151 -0.04396416 -0.0026086222 -0.021160636 0.03630586 -0.03156055 0.008901842
0.06461914 0.10774818 -0.03253795 0.041555762 -0.03238504 0.04569541 0.00026366327 -0.008013349
-0.076348506 0.028416723 0.036365956 -0.007423935 0.065043546 -0.025772985 -0.035713963 -0.049895026
0.04120533 0.05798449 -0.050286695 0.01520768 -0.031102236 0.095867865 -0.03140168 -0.06335366
-0.095338665 -0.07511958 -0.025211366 0.03500034 0.07363953 -0.043067917 0.025210658 -0.005464237
-0.07155229 0.06474421 -0.082199626 0.131672 0.0019029585 0.04203949 0.008790963 0.048381694
-0.043844786 0.01440592 -0.053560372 -0.0045889975 -0.0677996 -0.034569517 -0.05510298 -0.051366813
0.049268514 0.0021553317 -0.06520548 0.016764538 0.031874403 0.031960137 0.017730534 -0.07425555
0.008633647 0.062282696 -0.006161386 -0.048561156 0.04553819 -0.0516468 -0.09618633 0.08952991
0.03924286 -0.024111157 0.059654262 0.054417565 -0.014368039 -0.0975057 0.08566859 0.046157498
0.08912343 -0.061265465 -0.021098431 0.10739028 -0.03228258 -0.004876279 -0.034223747 0.07372325
-0.057134654 -0.05838741 0.104834236 -5.243693e-06 -0.0018339051 0.089830495 -0.053307176 -0.03818009
-0.004400723 0.086350374 0.009924089 -0.058339987 0.06856967 -0.04950539 -0.03152488 -0.049679298
-0.0111144455 0.019659994 -0.06561002 0.07069331 -0.056121152 -0.021855064 0.123371996 0.10213246
00000000: 1a06 0f3d 5d3c 823d 2bd7 c1bd 7770 53bb
00000010: d870 c7bd 6830 7abd 6ecf f9bc be80 8c3c
00000020: eff3 8ebc 09b4 8b3c 6a0e b0bd 8711 2a3d
00000030: 736c 2abd 2d08 66bd 3394 ab3c a07c 49bd
00000040: 7db3 9a3d 6ca9 25bd 0a92 983b 9003 4dbd
00000050: 6946 8ebc c4a3 d9bc 7fc9 753d 6931 583d
00000060: 7c60 c8bc 0aa1 86bd 2f50 963d d4f2 92bc
00000070: 9cda 11bd 7905 5d3d d957 9fbc 4806 283d
00000080: 3a24 5e3c adef f9bc cdf9 b5bc dca6 5d3c
00000090: 172a c33b 9be0 6dbd bd6d ce3c 4fb3 75bc
000000a0: 9578 413d 62ef 2ebc 026d bdbc e82b 45bc
000000b0: 8627 20bd e960 3e3d 1f71 83bd 4035 80bc
000000c0: ecef e83c 197c 293d e88a 423d d43b 82bb
000000d0: edad 73bc 02e1 9f3d 5234 c33c 2a54 0dbb
000000e0: 4f7e 1abd b5a5 febb d686 a13c b761 64bd
000000f0: 9fb4 4d3d 9d85 9a3d 8f8d 4dbd 906f e83b
00000100: bb43 60bd 1ab3 e0bd bb88 b9bc 41f8 f93c
00000110: aa43 d43d e1f7 a2bb 9dbc 8d3d cb3a 93bd
00000120: 0251 be3d 24b9 ed3c 5095 cabc 7198 c83d
00000130: b733 063d 3955 e2bc b715 38bd 3c56 16bd
00000140: 91cd bc3c 4d00 573c f588 1cbd 0f7b a2bd
00000150: 1692 05bd 404d ca3b a552 c43a 9c22 123d
00000160: e319 753c b0a5 3f3c 36e3 23bd 8a4c 583b
00000170: a66d 6dbd 0f13 5fbb d222 013c 37ce cb3d
00000180: 253c 073d 6d34 48bd 1941 01bc a725 4b3d
00000190: ceb1 babd 9ce6 d13d b979 fd3c 4f88 b8bd
000001a0: c119 653d 7457 573d 127e 773d b67f 03bd
000001b0: 1e3a 97bd 6179 2c3d da30 593d 77b4 793d
000001c0: 48d8 92bd 6cd4 363c 067e 533d 75b7 f0bc
000001d0: 8c04 a8bd fc30 883d ef03 87bd 36f5 423d
000001e0: c14e 8e3c 46b3 a93d 1c61 363d 8411 4fbd
000001f0: 432a c1bc 0949 99ba ae68 9e3c 3a5d 0fbc
00000200: 7b55 53bd a446 88bd f3ed ddbc cc76 b8bc
00000210: 842a b53d 871b 4e3d 6176 a13d 78b3 93bd
00000220: 4b7d e4bc fb63 e13d 5f74 7b3d acb1 143a
00000230: 6778 25bc 13ed 313d 851e 573b 3a21 223d
00000240: 1e19 85bc eb07 80bd c313 34bd 6bf5 2abb
00000250: 1259 adbc 74b5 143d a345 01bd 08d9 113c
00000260: 0a57 843d 14ab dc3d 8346 05bd 6036 2a3d
00000270: 2da6 04bd 1c2b 3b3d 493c 8a39 6c4a 03bc
00000280: 9b5c 9cbd 30ca e83c 78f4 143d 7b44 f3bb
00000290: 8d35 853d de21 d3bc ce48 12bd ba5e 4cbd
000002a0: ecc6 283d 2581 6d3d 6cf9 4dbd a229 793c
000002b0: 1eca febc 5f56 c43d 0c9f 00bd 90bf 81bd
000002c0: eb40 c3bd 4bd8 99bd 1188 cebc 845c 0f3d
000002d0: 52d0 963d fc67 30bd 9586 ce3c 580d b3bb
000002e0: 028a 92bd 9d98 843d 4758 a8bd 06d5 063e
000002f0: b16c f93a 9a31 2c3d f907 103c e22b 463d
00000300: 9796 33bd cf06 6c3c 1f62 5bbd 4d5f 96bb
00000310: 84da 8abd c498 0dbd aab3 61bd 0266 52bd
00000320: c8cd 493d 7740 0d3b 738a 85bd c955 893c
00000330: bc8e 023d a2e8 023d a03f 913c 4b13 98bd
00000340: 2474 0d3c 241c 7f3d 74e5 c9bb 10e8 46bd
00000350: 4186 3a3d 988b 53bd 57fd c4bd 755b b73d
00000360: 1fbd 203d c384 c5bc 0758 743d f4e4 5e3d
00000370: ec67 6bbc 12b1 c7bd 0473 af3d a50f 3d3d
00000380: 5886 b63d 7ff1 7abd 9ed6 acbc 6fef db3d
00000390: bd3a 04bd 31c9 9fbb 332e 0cbd 37fc 963d
000003a0: 0706 6abd a327 6fbd 55b3 d63d fbf2 afb6
000003b0: a55f f0ba 0df9 b73d a058 5abd ba62 1cbd
000003c0: f133 90bb 77d8 b03d a598 223c e9f5 6ebd
000003d0: 416e 8c3d 2ac6 4abd 3c20 01bd 857c 4bbd
000003e0: 5d19 36bc ff0d a13c 8c5e 86bd a7c7 903d
000003f0: 4bdf 65bd 6409 b3bc 75aa fc3d d32a d13d

bias f4 [50]
0.4658843 -0.01731815 -0.0043105464 -0.0013220934 -0.008960426 -0.0036580588 -0.010054418 0.46751073
-0.02141921 -0.0054507637 0.4970131 -0.010429568 -0.00014009872 0.45179003 -0.0027628678 -0.002010378
0.4533988 -0.00044600025 -0.091931954 -0.0065751164 -0.0059147333 -0.0009063749 0.47553256 -0.0073685334
-0.09421721 -0.0009337688 0.47381207 0.4334361 -0.003011301 -0.04646417 -0.013159737 0.46393272
-0.010520136 -0.0016526345 -0.0027992534 -0.06811588 -0.0038417028 -0.011282843 -0.021192838 0.4601446
0.4947693 0.47829664 -0.005827823 -0.00986536 -0.009805328 -0.0645088 -5.740816e-06 -0.007059845
-0.0017913673 -0.0020701436
00000000: 6388 ee3e cbde 8dbc 7c3f 8dbb 184a adba
00000010: c0ce 12bc 0bbc 6fbb 49bb 24bc 915d ef3e
00000020: 5777 afbc 529c b2bb 8078 fe3e c7e0 2abc
00000030: 77e7 12b9 0651 e73e 3b11 35bb 8cc0 03bb
00000040: e323 e83e 24d5 e9b9 d246 bcbd 1374 d7bb
00000050: 61d0 c1bb ca99 6dba 0179 f33e bd73 f1bb
00000060: f4f4 c0bd 2ac8 74ba 7f97 f23e 56eb dd3e
00000070: 3f59 45bb 3751 3ebd f09b 57bc 9788 ed3e
00000080: a65c 2cbc 369d d8ba ae73 37bb 5780 8bbd
00000090: 14c5 7bbb acdb 38bc 9a9c adbc 1398 eb3e
000000a0: 6752 fd3e 4ce3 f43e 53f7 bebb 52a2 21bc
000000b0: 87a6 20bc 311d 84bd 3ca1 c0b6 4656 e7bb
000000c0: 50cc eaba 3fab 07bb

weight f4 [50, 768]
-0.09162994 0.08922001 0.0066116177 0.0100861015 -0.031170433 0.028340098 -0.0010913801 0.028967042
-0.24812992 -0.04737072 0.11837224 -0.038306344 0.05707357 0.040711887 -0.025995523 -0.03596659
0.057830665 -0.05861045 0.013489312 -0.06485858 0.09350497 -0.017120244 -0.24973132 0.06032922
0.018644467 -0.057180632 -0.11072048 0.19698726 -0.027340118 -0.0041908165 -0.096179746 0.048087858
-0.019589374 0.009805784 0.044323735 -0.085044675 -0.044612847 -0.0044344873 0.042893972 0.0417269
-0.033473384 0.0036752278 0.022766411 0.086736485 0.0013293964 0.07413797 -0.074765585 0.13505384
0.014300967 0.07131229 -0.060065202 0.03649144 0.030611357 -0.04564916 0.032256823 0.0104210805
0.021860462 0.06944094 0.0140021015 0.13125166 0.012603392 -0.059709217 0.0576221 -0.047294922
0.08586142 0.0343649 -0.10165409 -0.01193168 -0.0726765 0.08476826 -0.033016108 -0.066667795
-0.04806638 0.085024014 -0.022260383 -0.1261856 0.030018875 -0.043992717 -0.014478043 -0.016929772
0.06320512 0.038127158 -0.012829708 0.032465473 0.12285053 0.053670425 -0.1733523 -0.013478565
0.049769714 -0.020517852 -0.017470025 0.009230182 -0.04691643 0.07044909 0.06806222 0.0067621577
0.060708676 -0.087832145 -0.11995354 -0.06700994 0.08423577 -0.123737656 0.13673608 0.011212005
0.07786063 -0.057116963 0.022747092 -0.07224517 -0.011012612 0.07224722 0.052786782 0.036183327
-0.08103958 -0.024961744 -0.020700151 0.009482749 -0.03940148 0.03292353 0.1554644 0.14277396
-0.022944108 0.14556235 -0.10242874 -0.005302186 -0.089301325 -0.05852032 0.010013777 -0.0152059095
0.007971648 -0.080093 0.057849064 -0.08703538 0.12366117 -0.07473486 -0.058976993 0.09445658
0.056793675 -0.022067003 -0.059998944 0.08529184 -0.09776991 0.070646845 0.1023189 -0.0038857807
-0.08508337 -0.09467939 -0.09458742 0.14306623 0.07442492 -0.019867111 -0.077417 -0.008603792
0.06701536 -0.02104661 -0.028739372 0.16185558 0.057985567 0.074613616 -0.051815316 -0.003709252
-0.04947903 -0.04958368 -0.01151785 -0.08774173 -0.07719043 0.07596565 -0.020542063 0.0886472
-0.037432693 0.1098511 -0.11293417 0.026773324 -0.060189646 -0.05478825 0.14603081 -0.109260306
-0.076441705 -0.08956855 0.06638332 0.07791541 0.07781252 -0.0033782807 0.06078568 -0.05138223
0.022306224 -0.07509666 0.1165523 -0.013918858 0.0069795586 0.09745686 0.03680113 -0.026596654
-0.044775702 0.15943047 -0.018181548 -0.0703894 0.095746115 -0.10130573 -0.104472645 -0.0643322
-0.040454 0.19541067 0.017911306 0.011098794 -0.052697755 0.10788096 0.033721294 0.03138331
-0.08281374 -0.015653301 -0.0091968 -0.06667221 -0.058195945 -0.08260568 0.11842029 0.013398942
-0.0688949 0.109588526 -0.05771262 -0.050963357 -0.08474812 -0.03350602 -0.03237531 0.0007099267
0.055530097 0.01525491 0.07437209 -0.049023505 -0.0574198 -0.018217143 -0.10689365 -0.11727316
-0.011167164 0.13786925 -0.12232272 0.009611459 -0.0658809 0.03890088 -0.052501507 -0.02268525
0.0016086444 -0.053909734 -0.040303953 -0.051618513 0.09172133 -0.09206025 0.044682704 0.06490141
0.044327803 0.018090287 0.05437859 -0.027367126 0.04264508 0.015776157 -0.08753551 -0.07876681
00000000: 7aa8 bbbd fbb8 b63d 45a6 d83b 2d40 253c
00000010: 2359 ffbc 7e29 e83c a40c 8fba 4a4c ed3c
00000020: c515 7ebe cd07 42bd 256d f23d 1de7 1cbd
00000030: fac5 693d 82c1 263d 90f4 d4bc b451 13bd
00000040: d9df 6c3d 8311 70bd 4602 5d3c 93d4 84bd
00000050: 897f bf3d c13f 8cbc 91b9 7fbe c61b 773d
00000060: 48bc 983c 3d36 6abd 6bc1 e2bd 07b7 493e
00000070: 62f8 dfbc 1e53 89bb e3f9 c4bd c6f7 443d
00000080: e579 a0bc 70a8 203c ce8c 353d e72b aebd
00000090: f6bb 36bd 2d4f 91bb 97b1 2f3d d3e9 2a3d
000000a0: 631b 09bd 17dc 703b a080 ba3c e6a2 b13d
000000b0: 243f ae3a a6d5 973d b31e 99bd 8e4b 0a3e
000000c0: 9a4e 6a3c 2e0c 923d ee06 76bd 0c78 153d
000000d0: abc4 fa3c 9dfa 3abd bb1f 043d 2ebd 2a3c
000000e0: b614 b33c 0d37 8e3d 1269 653c d666 063e
000000f0: 757e 4e3c a791 74bd 2705 6c3d 52b8 41bd
00000100: 1dd8 af3d 36c2 0c3d 0530 d0bd 187d 43bc
00000110: 6bd7 94bd fb9a ad3d e63b 07bd 2089 88bd
00000120: 41e1 44bd 1221 ae3d 685b b6bc cc36 01be
00000130: 25ea f53c b531 34bd 5035 6dbc 4eb0 8abc
00000140: b071 813d 392b 1c3d b233 52bc 84fa 043d
00000150: 0f99 fb3d 85d5 5b3d 4483 31be 33d5 5cbc
00000160: 54db 4b3d 0e15 a8bc 4c1d 8fbc 303a 173c
00000170: 712b 40bd 9d47 903d 3564 8b3d 1795 dd3b
00000180: a9a9 783d 57e1 b3bd 34aa f5bd 823c 89bd
00000190: ce83 ac3d 2b6a fdbd 8b04 0c3e 8fb2 373c
000001a0: 6575 9f3d 7af3 69bd 1c58 ba3c 47f5 93bd
000001b0: 3e6e 34bc 5af6 933d f436 583d f834 143d
000001c0: 14f8 a5bd 927c ccbc 5d93 a9bc 885d 1b3c
000001d0: 7263 21bd d3da 063d 0f32 1f3e 5633 123e
000001e0: 48f5 bbbc 4c0e 153e 29c6 d1bd f6bd adbb
000001f0: 9de3 b6bd 01b3 6fbd d310 243c 3522 79bc
00000200: 849b 023c cc07 a4bd 24f3 6c3d 9b3f b2bd
00000210: 1142 fd3d 970e 99bd dc91 71bd 7472 c13d
00000220: 7ca0 683d dcc5 b4bc 74c1 75bd 7dad ae3d
00000230: 973b c8bd 4baf 903d 928c d13d 95a8 7ebb
00000240: 3140 aebd 45e7 c1bd 0db7 c1bd f47f 123e
00000250: 186c 983d 5ac0 a2bc ce8c 9ebd ebf6 0cbc
00000260: 593f 893d f169 acbc d56e ebbc 78bd 253e
00000270: 4682 6d3d 06cf 983d 4c3c 54bd ec16 73bb
00000280: 86aa 4abd 4218 4bbd 5db5 3cbc f0b1 b3bd
00000290: 0416 9ebd e193 9b3d d447 a8bc aa8c b53d
000002a0: 0653 19bd 9df9 e03d 084a e7bd bb53 db3c
000002b0: 6b89 76bd a569 60bd 1a89 153e dec3 dfbd
000002c0: 788d 9cbd b76f b7bd faf3 873d 1d92 9f3d
000002d0: 2c5c 9f3d 2566 5dbb 68fa 783d 2c76 52bd
000002e0: 8bbb b63c 47cc 99bd f9b2 ee3d ec0b 64bc
000002f0: c8b4 e43b 7697 c73d c8bc 163d 3ae1 d9bc
00000300: ba66 37bd be41 233e 78f1 94bc 5128 90bd
00000310: 8a16 c43d 6179 cfbd c1f5 d5bd 9ac0 83bd
00000320: 18b3 25bd bc19 483e bbba 923c b7d7 353c
00000330: 9ad9 57bd b1f0 dc3d 571f 0a3d c98b 003d
00000340: 409a a9bd 5a3b 80bc 2dae 16bc 718b 88bd
00000350: df5e 6ebd 2b2d a9bd 5686 f23d 3c87 5b3c
00000360: c518 8dbd f36f e03d 1164 6cbd f4be 50bd
00000370: 6c90 adbd 9c3d 09bd f99b 04bd 601a 3a3a
00000380: 8773 633d bbef 793c 6550 983d dfcc 48bd
00000390: 0631 6bbd 1e3c 95bc 0feb dabd e92c f0bd
000003a0: 7bf6 36bc 992d 0d3e 5684 fabd 6279 1d3c
000003b0: 91ec 86bd 8756 1f3d d20b 57bd 6bd6 b9bc
000003c0: 26d9 d23a 74d0 5cbd c215 25bd ef6d 53bd
000003d0: 65d8 bb3d 168a bcbd 3605 373d 08eb 843d
000003e0: 1291 353d 1532 943c 16bc 5e3d 0631 e0bc
000003f0: 9bac 2e3d 003d 813c d145 b3bd 7e50 a1bd

bias f4 [50]
-0.008875435 -0.0071365614 -0.008991537 0.52733386 0.52745795 -0.05810989 -0.0072520846 0.56395626
-0.017745946 0.06487809 -0.038292278 -0.0022666634 -0.062496662 0.62929577 0.41530406 -0.037860595
-0.064234726 -0.0044197775 0.42855704 -0.010544772 -0.0115559455 -0.0022532973 -0.00023326017 0.57019794
0.3024696 -0.009569187 0.3704423 0.017151998 -0.014843454 -0.0033525391 -0.013387881 0.39987764
-0.012346051 -0.0046027955 -0.04823561 -0.03252233 -0.054222673 -0.062034052 -0.046466228 0.47921363
-0.026412204 0.77209127 -0.057219263 -0.006321612 -0.0047004684 -0.004840739 -0.015825003 0.41652542
-0.0064497036 -0.014715828
00000000: 466a 11bc d1d9 e9bb 3d51 13bc 5aff 063f
00000010: 7c07 073f a304 6ebd e5a2 edbb 705f 103f
00000020: f25f 91bc cede 843d 5dd8 1cbd 4d8c 14bb
00000030: 80fc 7fbd 8719 213f bca2 d43e b613 1bbd
00000040: 7f8d 83bd c8d3 90bb d46b db3e fbc3 2cbc
00000050: 2655 3dbc 0eac 13bb 4d97 74b9 7ef8 113f
00000060: 4cdd 9a3e 14c8 1cbc 9daa bd3e 5982 8c3c
00000070: f531 73bc 46b6 5bbb d858 5bbc c3bc cc3e
00000080: 1747 4abc 0cd3 96bb b492 45bd 2236 05bd
00000090: 9818 5ebd 6b17 7ebd 5f53 3ebd 7d5b f53e
000000a0: 685e d8bc c6a7 453f bf5e 6abd 8625 cfbb
000000b0: 6306 9abb 109f 9ebb 70a3 81bc d242 d53e
000000c0: 0958 d3bb a81a 71bc

weight f4 [50, 50]
0.1340455 -0.20303263 -0.11560765 -0.11087399 0.13327219 -0.15046996 0.022754693 0.05776481
0.16078271 0.036821056 -0.061244663 -0.20607942 -0.13867587 -0.009666929 -0.028242996 -0.1641291
0.1508811 0.008017008 0.115758464 0.042547304 -0.075240456 0.02432296 -0.0052879276 0.19855236
0.017719794 -0.14291427 -0.016382791 -0.13548577 0.0852514 -0.012092911 -0.23963574 -0.14026245
-0.23005883 0.15918908 0.009468971 0.08200811 -0.20538488 -0.25398657 0.18639438 0.080953136
0.2540654 0.043365903 -0.23658426 -0.12046108 -0.32565415 -0.16448444 -0.029378697 -0.21216415
0.1109498 0.1110228 0.22421573 -0.056897514 -0.2564235 0.03412075 0.087291524 -0.05068615
-0.15598086 -0.08024737 0.16712096 0.15299256 0.1356966 -0.09890316 -0.08057708 -0.019243035
-0.15431115 -0.026600113 0.011989319 -0.2651189 -0.045430005 0.16116384 -0.15887763 0.021130048
0.29319876 -0.0033805585 0.11126922 0.016398555 -0.14104009 0.07034401 0.1527407 -0.091504
-0.019330584 0.15218128 -0.14648886 0.049651332 -0.12553267 -0.15880318 -0.18217562 -0.04905494
0.19440058 -0.030828794 -0.10623461 0.07313511 -0.07845772 -0.048780493 -0.09501777 0.2112543
-0.2574521 0.08302866 0.054566707 0.29385364 -0.07213614 -0.19168837 0.24313727 0.010388882
-0.16266082 0.004994493 0.2570017 -0.123757556 -0.118918896 -0.19506055 0.31571284 -0.1059001
-0.032641888 -0.06270841 0.06992846 0.12494002 0.32225344 -0.0034207643 -0.15315771 0.10538277
-0.001575976 -0.018914739 -0.1332889 -0.07386188 0.24965322 0.18216111 -0.10551343 0.12068974
0.0066705816 0.045027584 -0.06965587 0.30121937 -0.22080135 0.0752801 0.1433758 0.19435897
0.06865615 0.19536586 0.16177493 -0.08869961 -0.09150639 -0.10916984 -0.030396387 0.0144116795
-0.0018951203 -0.11869842 -0.14557382 0.19521272 0.00062691345 -0.14939249 0.011608132 -0.07207926
0.1013352 -0.1691369 0.22290504 -0.13141173 -0.21304895 -0.12889445 0.16688862 -0.09627154
0.16418347 0.19855689 0.06283131 0.1251736 0.066867806 -0.1639194 -0.04802225 0.05586669
-0.08120575 0.029385248 0.0986333 -0.07854599 -0.1723086 0.04080983 -0.030016487 0.47622272
-0.07976422 0.108875975 -0.20605633 -0.15826748 0.0038746116 0.016556408 0.004036586 -0.19485486
-0.16993852 -0.24972324 -0.023045672 -0.24089485 -0.23701584 0.09283778 -0.11560529 0.23666428
-0.11193585 -0.012730373 -0.30135226 0.0021793863 0.068389945 -0.009210801 0.4024029 0.3639208
0.15509772 -0.18638149 -0.02085714 -0.18419883 0.07549996 -0.15897939 0.01537503 0.21192783
0.1155716 -0.005722833 0.20092712 -0.2567724 -0.20822594 -0.17821811 -0.26647958 -0.08308683
-0.18162054 -0.016850742 0.18710455 -0.16764773 -0.24902481 -0.06263276 0.043324847 -0.13545494
0.034435794 0.35008836 0.005655266 -0.08418204 -0.067528106 -0.24850525 -0.12501696 0.04166014
0.16564025 -0.13478637 0.20928417 -0.00088517583 -0.10132223 -0.07057628 -0.20286682 -0.11321736
0.1734133 0.16700637 0.09843966 -0.028662177 -0.25419515 -0.029619383 -0.023000482 -0.03360796
0.18900546 0.25285152 -0.17014752 -0.04275985 0.19704127 -0.012214068 -0.14044528 0.2252859
00000000: 3943 093e c9e7 4fbe b4c3 ecbd e711 e3bd
00000010: 8178 083e cc14 1abe 0d68 ba3c cb9a 6c3d
00000020: 39a4 243e add1 163d afdb 7abd 7c06 53be
00000030: 0c01 0ebe 0a62 1ebc db5d e7bc 7511 28be
00000040: 9380 1a3e c559 033c c612 ed3d 1546 2e3d
00000050: ab17 9abd f240 c73c 5a46 adbb 4f51 4b3e
00000060: 1a29 913c 1e58 12be 3435 86bc c8bc 0abe
00000070: 4998 ae3d 5821 46bc 1263 75be f6a0 0fbe
00000080: 8b94 6bbe 7602 233e be23 1b3c def3 a73d
00000090: 6a50 52be 870a 82be 2bde 3e3e c2ca a53d
000000a0: dc14 823e 72a0 313d 2543 72be 4cb4 f6bd
000000b0: 24bc a6be 9c6e 28be 98ab f0bc 8f41 59be
000000c0: a639 e33d ec5f e33d cf98 653e 5e0d 69bd
000000d0: f149 83be 33c2 0b3d e6c5 b23d 489c 4fbd
000000e0: 72b9 1fbe bc58 a4bd c221 2b3e 15aa 1c3e
000000f0: 0df4 0a3e bd8d cabd 9905 a5bd 92a3 9dbc
00000100: be03 1ebe 7be8 d9bc d96e 443c aabd 87be
00000110: d014 3abd 2208 253e d1b0 22be ec18 ad3c
00000120: 261e 963e 5c8c 5dbb 1ee1 e33d 4356 863c
00000130: d06c 10be 8510 903d 0f68 1c3e 7366 bbbd
00000140: 2c5b 9ebc 69d5 1b3e 2d01 16be 325f 4b3d
00000150: a38b 00be 4d9d 22be 3f8c 3abe d5ed 48bd
00000160: f210 473e ab8c fcbc 8891 d9bd dcc7 953d
00000170: 71ae a0bd 0ece 47bd ad98 c2bd 0c53 583e
00000180: c3d0 83be ee0a aa3d 5781 5f3d fc73 963e
00000190: 1dbc 93bd f549 44be faf8 783e 2136 2a3c
000001a0: 8f90 26be d8a8 a33b ba95 833e 9a74 fdbd
000001b0: c08b f3bd f4bd 47be 1da5 a13e 27e2 d8bd
000001c0: 80b3 05bd 446d 80bd a736 8f3d 8ee0 ff3d
000001d0: 67fe a43e e72e 60bb 60d5 1cbe ecd2 d73d
000001e0: fb90 ceba 15f3 9abc e37c 08be e644 97bd
000001f0: 18a5 7f3e 7188 3a3e 6d17 d8bd 2f2c f73d
00000200: e594 da3b d86e 383d bda7 8ebd 6d39 9a3e
00000210: c019 62be 742c 9a3d 1bd1 123e 0a06 473e
00000220: 989b 8c3d fd0d 483e 54a8 253e 24a8 b5bd
00000230: b467 bbbd 7094 dfbd d801 f9bc f71e 6c3c
00000240: af65 f8ba 2818 f3bd 4e11 15be d8e5 473e
00000250: 7357 243a 58fa 18be 0930 3e3c 4b9e 93bd
00000260: d488 cf3d 3932 2dbe 3841 643e cc90 06be
00000270: 8129 5abe e8fc 03be dae4 2a3e 032a c5bd
00000280: b61f 283e 7f52 4b3e b4ad 803d 822d 003e
00000290: fdf1 883d 7dda 27be fbb2 44bd 78d4 643d
000002a0: 334f a6bd 55b9 f03c 4100 ca3d b8dc a0bd
000002b0: aa71 30be 3528 273d 23e5 f5bc 77d3 f33e
000002c0: 6c5b a3bd 5efa de3d 6e00 53be df10 22be
000002d0: 32ed 7d3b 4ea1 873c 5645 843b 0888 47be
000002e0: 5d04 2ebe 73b7 7fbe 47ca bcbc 24ad 76be
000002f0: 48b4 72be bc21 be3d 77c2 ecbd 1f58 723e
00000300: 9f3e e5bd 0e93 50bc d84a 9abe 09d4 0e3b
00000310: 0710 8c3d e6e8 16bc c107 ce3e d453 ba3e
00000320: f0d1 1e3e cada 3ebe 98dc aabc 9e9e 3cbe
00000330: b99f 9a3d 7ecb 22be 8de7 7b3c 9c03 593e
00000340: ceb0 ec3d 9a86 bbbb d7bf 4d3e ac77 83be
00000350: 2e39 55be cf7e 36be 0370 88be 6e29 aabd
00000360: bcfa 39be 910a 8abc 5698 3f3e d9ab 2bbe
00000370: 5c00 7fbe 9b45 80bd 6575 313d b3b4 0abe
00000380: 8c0c 0d3d c83e b33e cf4f b93b a267 acbd
00000390: 2d4c 8abd 2978 7ebe 7204 00be d3a3 2a3d
000003a0: 999d 293e 7005 0abe 974e 563e 250b 68ba
000003b0: 0882 cfbd 4c8a 90bd 52bc 4fbe 81de e7bd
000003c0: 4293 313e b803 2b3e bc9a c93d f1cc eabc
000003d0: de25 82be 59a4 f2bc 826b bcbc 80a8 09bd
000003e0: a68a 413e c175 813e 273b 2ebe f424 2fbd
000003f0: 30c5 493e 841d 48bc e3d0 0fbe 59b1 663e

bias f4 [50]
0.10687147 0.06805772 0.055325877 0.14936163 0.011584848 -0.019046476 0.14650738 0.13045901
-0.00043364757 0.04943985 0.060261037 0.003042005 -0.002034349 0.027733179 -0.07366787 0.13884132
-0.032324333 0.20983061 -0.06449069 -0.051958892 -0.037635274 -0.08986907 0.024308087 -0.059362307
0.114037655 -0.12129959 -0.11635817 0.053574268 0.09618088 0.026413547 0.07812904 -0.080816664
0.04286107 0.061646502 0.09063668 -0.021949789 -0.08172351 -0.011209313 -0.122893564 0.017102946
0.043708403 -0.045738954 -0.03277525 -0.09041784 -0.07450652 -0.09915854 0.08261978 -0.056508586
-0.012375534 -0.018360551
00000000: 6edf da3d d961 8b3d 639d 623d 41f2 183e
00000010: 60ce 3d3c 5b07 9cbc 0806 163e 0c97 053e
00000020: 315b e3b9 7181 4a3d 47d4 763d 605c 473b
00000030: b652 05bb b130 e33c 2edf 96bd 6b2c 0e3e
00000040: 8566 04bd d6dd 563e b213 84bd d9d2 54bd
00000050: 7227 1abd 460d b8bd c121 c73c e425 73bd
00000060: 938c e93d eb6b f8bd 314d eebd b170 5b3d
00000070: 7bfa c43d 3961 d83c 1e02 a03d 3583 a5bd
00000080: 178f 2f3d 0b81 7c3d b99f b93d 0bd0 b3bc
00000090: a85e a7bd 44a7 37bc 9faf fbbd 7a1b 8c3c
000000a0: 9507 333d c558 3bbd 573f 06bd fd2c b9bd
000000b0: e096 98bd a213 cbbd 8f34 a93d 8c75 67bd
000000c0: c0c2 4abc de68 96bc
