models/A2_Video_Games_5/revw_model.pth (torch, 320869 bytes, 6 tensors)

weight f4 [50, 768]
000000 03 19 6a 3d 06 f0 8d bb 96 7d 5c bd 72 4a 8d 3d
       0.05715276 -0.0043315915 -0.053830706 0.06898965
000010 cf fb 2d bd b6 53 cd 3c 9d 0f 0f 3d be f4 30 bd
       -0.04247647 0.02506433 0.034927 -0.043202154
000020 3e 2a 5b 3d b1 aa d5 3d e6 70 79 3d 19 7d 5d bc
       0.053507082 0.104329474 0.060898684 -0.013518595
000030 54 15 a8 bd 11 18 17 bd 7b 89 b6 bd 94 fc 6d 3d
       -0.08207193 -0.036888186 -0.08912941 0.058102205
000040 64 66 75 bd ad c7 56 be be 7d 74 bc e2 47 9a bd
       -0.0599121 -0.20974608 -0.014922557 -0.07533242
000050 fa b5 52 bc fc 92 e1 3c 00 c7 7c bd 03 b4 24 bd
       -0.012860769 0.027535908 -0.06171322 -0.040210735
000060 95 89 87 bd a9 2c 3c 3d 27 55 01 3e 3b e2 1c 3d
       -0.066180386 0.04594103 0.1263014 0.038301688
000070 af 0b 6b 3d 1d ea 65 bd 08 d4 bc 3c 8e fc 50 bd
       0.05738419 -0.05613147 0.023050323 -0.051022105
000080 a1 fb 12 bb eb 0a a7 3d ca 02 d1 3c 65 eb 1d 3d
       -0.0022427815 0.08156379 0.025514025 0.038554568
000090 ad 2f ef 3c 63 2c 87 3d a1 32 4f bd b8 40 8a 3d
       0.029197538 0.06600263 -0.050585393 0.06750625
0000a0 12 4e 3a 3d e7 d7 a8 3d c4 25 c0 3b fe 91 52 be
       0.04548461 0.08244305 0.005863877 -0.20563504
0000b0 3c d8 90 3d 56 81 9d 3d 7c b3 03 3d cf c6 d2 3c
       0.070724934 0.076906845 0.03215359 0.025729565
0000c0 98 e3 91 3d 31 c0 2a 3c 0a 4a dc 3d 16 86 7d bd
       0.07123488 0.010421799 0.10756309 -0.061895452
0000d0 d4 42 4c 3d 40 c1 99 3d 62 39 ad bc ab a2 59 3c
       0.04986842 0.07507563 -0.021145526 0.013283412
0000e0 96 30 4a 3d 7c 0e f8 3c 6f 35 68 bd 15 3f 57 3c
       0.04936274 0.030280344 -0.056691583 0.0131375985
0000f0 c4 7d 0b bc bc cc ea bc 0f 4a 99 3d 22 f0 bb bc
       -0.008513872 -0.028662078 0.07484829 -0.022941653
000100 47 4c 12 bc 67 63 f5 bd ed 76 08 be 00 65 91 bc
       -0.008929319 -0.1198185 -0.13326617 -0.017748356
000110 d4 4b 8e 3c 8c 66 a5 3d 0d 46 05 bd b2 54 2a 3d
       0.017370142 0.080762 -0.03253751 0.041584678
000120 b2 57 62 bd 29 1c 25 3e 1a aa 0b be 51 86 7d 3c
       -0.055259414 0.16124023 -0.13639107 0.015473918
000130 42 c9 8e 3d 8c e2 e8 3c 2e 60 72 3d 14 42 06 3d
       0.06971981 0.028428338 0.059173755 0.03277786
000140 ff 36 ad 3c 37 3e 51 bd e6 db 5a bd d0 45 95 bd
       0.021144388 -0.051084723 -0.053432368 -0.07288706
000150 b7 2c 66 bd ed e3 e9 bb ff 96 88 bc 9d 47 41 bd
       -0.056194987 -0.0071377666 -0.016673563 -0.047187436
000160 86 43 06 3d 95 4a a0 3d b8 a2 eb bc da 59 09 3d
       0.03277924 0.078267254 -0.028764114 0.033532955
000170 61 04 d6 3d 70 89 df 3c f4 cd 03 3c 54 6f 19 3d
       0.10450054 0.027287215 0.0080447085 0.037459686
000180 51 b6 19 bd 3a cd 80 bd fd fa d2 bc a7 44 ab bb
       -0.037527386 -0.06289144 -0.025754446 -0.00522669
000190 79 a5 7d b7 e6 66 86 3d f0 30 5a bc 9b 84 1d be
       -1.5118502e-05 0.06562595 -0.013317332 -0.15382616
0001a0 ac 23 56 bd 99 af a6 3d ec f1 c2 bc 2a 47 ed bc
       -0.052280113 0.08138961 -0.023796998 -0.028964598
0001b0 e2 d0 83 bc 2f 72 a6 bd cd bf 5a be d3 ea d0 bd
       -0.016090814 -0.081272475 -0.21362229 -0.10201039
0001c0 9c 2e 06 bd ae 03 7c 3d 53 c9 d4 3c a9 3a 1c bd
       -0.032759294 0.061526947 0.025974905 -0.03814188
0001d0 d2 a3 46 3b 59 53 c0 3d 9a d6 16 bd 26 0c c2 bd
       0.0030310047 0.09390897 -0.036825754 -0.094749734
0001e0 d0 01 5f 3d fe a5 b9 bd 0a 57 2a 3c e2 b4 4d 3d
       0.054445088 -0.090648636 0.010396728 0.05022133
0001f0 f7 f1 0f ba 1c 86 84 3d 3e 3d 54 bd 5e dc 4c 3d
       -0.00054910727 0.06470892 -0.051816218 0.050014846
000200 00 df e3 3d 67 27 87 3d 4b 70 ca 3c 8a ba 95 bd
       0.11126518 0.06599312 0.024711749 -0.0731097
000210 12 bc b2 bd 20 d1 a6 bc 40 f1 ef 3d 57 52 a4 bd
       -0.08727278 -0.02036339 0.11715937 -0.080235176
000220 ab f0 63 3d 3b d1 7d 3c cc b1 1f bd f8 0e 84 3d
       0.05564944 0.015491779 -0.03898792 0.064481676
000230 df 17 1c 3d b0 17 c7 3d fa f4 63 3c 0c 0c 8e 3c
       0.038108703 0.09721315 0.013913387 0.017339729
000240 8b 0d e5 3d b4 50 04 3d f9 14 2c bd ab 51 10 3c
       0.11184224 0.032303527 -0.04201219 0.008808534
000250 30 12 d6 bc 3b 00 2d 3d f3 da 33 bd e3 07 8c 3d
       -0.02613172 0.042236548 -0.043909978 0.06837442
000260 e5 b8 98 3c cf 77 92 3c fd 18 e1 bc af ef 76 3d
       0.018642852 0.017879395 -0.027477736 0.060287174
000270 08 f5 d0 bc ab e0 bc bd b3 5f 47 bd 9e 8d c4 3d
       -0.025507465 -0.092225395 -0.04867525 0.09597324
000280 90 76 ae 3c 3e 69 5f bd 56 f8 e0 bc 42 f2 9c bc
       0.02129677 -0.054543726 -0.027462166 -0.019158486
000290 47 e3 39 bd b8 a1 3d bd f2 40 1e bd 13 3a 19 bc
       -0.045382764 -0.046296805 -0.038636155 -0.009352225
0002a0 5a 17 27 bd e7 72 0f be db 1c 17 3d 12 a7 d6 bd
       -0.040793754 -0.14008676 0.036892753 -0.10481085
0002b0 8a 82 8f 3d bb bf 1c bd c4 40 a2 bb a7 75 c8 3c
       0.0700732 -0.038268786 -0.0049515683 0.024470164
0002c0 72 c4 b6 3b 48 f0 dd 3d 01 7c 3c bd 84 16 a5 3d
       0.0055776173 0.10836846 -0.046016697 0.08060935
0002d0 d9 f6 81 bd d2 86 39 3c aa 3d 8f 38 ee ac 17 3d
       -0.063459106 0.011323648 6.830257e-05 0.037030153
0002e0 a8 37 ae 3b d7 a3 cc 3d 92 af dd 3d 50 c0 26 bc
       0.0053166933 0.099921875 0.10824503 -0.010177687
0002f0 09 71 f8 bc 6e e3 09 bc a9 79 5a bd 76 ef 4b bd
       -0.030327337 -0.00841604 -0.05333868 -0.049788915
000300 ff b9 34 bc 6e 07 d1 3d 71 2d 8c 3d fa df 81 bd
       -0.011030673 0.10206495 0.06844605 -0.06341548
000310 a3 16 89 3d 24 59 e3 3c 71 43 1f bd 4f 24 ec bc
       0.06693771 0.027752466 -0.038882677 -0.028825907
000320 ef 67 2a bc 15 62 f8 bc bf 62 8c 3d 5a 30 b7 bd
       -0.010400756 -0.030320207 0.06854772 -0.08944769
000330 71 af 6b 3d 91 32 40 bd 42 28 cf bc be af 01 3d
       0.05754036 -0.046923224 -0.025287751 0.03166174
000340 aa 1a 24 bd 04 e7 3e 3d 05 76 42 bd 0c b4 48 bd
       -0.04006449 0.046607032 -0.047475833 -0.04899983
000350 d8 b3 d3 3d a3 35 d3 3c b5 01 a6 bb 5d f2 35 3d
       0.10337037 0.025782412 -0.0050661215 0.04442059
000360 5d 87 8a bc 8a bd a4 3d f5 f0 33 3d 43 ca 6d 3d
       -0.01691025 0.08043964 0.043930966 0.05805422
000370 60 d3 b1 bc 1f 8b b0 bd ff 16 a0 3b a0 5a 3e bd
       -0.021707237 -0.08620285 0.004885554 -0.046473145
000380 80 f0 4a bd b5 e3 27 3b 09 99 83 3d 8e 8a c6 bc
       -0.049545765 0.0025617902 0.064256735 -0.02423599
000390 13 09 20 3d f2 34 4e 3c 3e 14 88 bd 38 6f bb 3b
       0.039071154 0.012585865 -0.06644486 0.0057200454
0003a0 8f bd c7 3d d3 30 7c 3d 2f 34 48 3c 77 94 8a bd
       0.09752952 0.06157 0.012219473 -0.06766599
0003b0 f9 60 b9 bc a4 20 71 bc ce 21 83 3d f8 3b 3a 3d
       -0.022629248 -0.014717255 0.06402932 0.045467347
0003c0 49 57 bc 3d 61 cf a1 bd 44 38 28 bd 05 4d e3 bc
       0.09196336 -0.079008825 -0.041069284 -0.027746687
0003d0 e9 b7 62 3d d2 a2 9b bd 1c 4c b4 bc 2c de 5e 3d
       0.05535117 -0.07599415 -0.022008948 0.0544111
0003e0 77 07 8b bc f6 1c 79 bd df e3 68 bd 51 7f 9a bd
       -0.016971333 -0.060818635 -0.05685794 -0.07543815
0003f0 c4 38 06 bd e4 a0 48 bd fe e8 8c 3d cb ab 32 3d
       -0.03276898 -0.048981562 0.06880377 0.043620866

bias f4 [50]
000000 ef 26 42 bc e8 61 2c bb 27 c8 1e bd 20 d9 62 bb
       -0.011850103 -0.0026303474 -0.0387651 -0.003461428
000010 f2 79 74 bb 62 02 f9 3e 82 cf ca bc d0 ec f8 bb
       -0.003730413 0.4863463 -0.02475715 -0.0075965896
000020 de 24 c0 ba 0b ed 08 bb 85 0a 2f bb ca 71 d5 bc
       -0.0014659425 -0.0020893242 -0.002670915 -0.026055235
000030 90 51 32 bd 09 42 b6 bb 8a 8d 3d bb 7c 67 85 bc
       -0.043534815 -0.005562071 -0.0028923475 -0.016284697
000040 08 16 e4 ba 93 d3 4b bb 6e ae 12 bd 19 72 d0 bc
       -0.0017401585 -0.003110145 -0.03581088 -0.025445031
000050 56 ec 88 bb ea 0b 9c bb 1a 05 34 bc ec 9f 07 bb
       -0.004178564 -0.0047621625 -0.010987544 -0.0020694686
000060 d5 81 1b bb 0d f3 5d bb 5c 65 dc bc 78 e3 e7 3e
       -0.002372851 -0.0033866793 -0.0269038 0.45290732
000070 5a 48 92 b9 09 00 bd ba 51 ea 76 bc c0 e9 ca ba
       -0.00027901196 -0.0014419566 -0.015070514 -0.001548104
000080 1a 36 6c bb 51 fc 63 bc 0f ba a7 bb a3 fc 7b bb
       -0.003604299 -0.013915137 -0.0051186155 -0.0038450144
000090 3f 39 eb 3e 7c ed 91 bc d6 33 5b bb 31 88 d1 bb
       0.45942113 -0.017813437 -0.0033447645 -0.006394409
0000a0 64 b6 9f bd 8e 06 a2 bb 10 33 b3 3e 6d 2c a6 bc
       -0.0779846 -0.004944629 0.34999895 -0.020284856
0000b0 41 e4 41 ba fe ea fc 3e 4f 19 04 bd dd a8 f9 3e
       -0.0007396378 0.49398035 -0.0322507 0.48761645
0000c0 27 a2 38 bc cb b1 05 bd
       -0.011269129 -0.03264026

weight f4 [50, 768]
000000 ad 4f 42 bc 0f 16 64 bc 73 a3 6e 3d 9c 1d 3a 3d
       -0.0118598165 -0.013921275 0.058261346 0.045438394
000010 b8 3c b5 bc e3 f0 8e bd be 60 8e 3d 7c 1a f3 ba
       -0.02212368 -0.06979539 0.06952046 -0.0018547322
000020 76 ed 48 3d 30 56 39 bd 05 2b 7d bc d1 12 3c 3b
       0.049054585 -0.04524821 -0.015452151 0.002869774
000030 b5 49 7c 3c c9 71 1c 3d 32 5f 7b b8 8d ff 3a 3c
       0.0153984325 0.03819445 -5.993172e-05 0.011413467
000040 2b bc 6e 3b 9f fc ae bc 90 13 af bd 25 14 6e 3c
       0.0036428075 -0.021360693 -0.08548653 0.01453117
000050 c1 22 11 bd 0e c7 62 bd f5 b5 23 3d 5d b2 ac bd
       -0.035433535 -0.055365615 0.03996845 -0.084324576
000060 48 94 ae bd 6c 9f 4b 3d 98 1a 67 3c 09 23 b6 bb
       -0.08524376 0.049712583 0.014105462 -0.0055583757
000070 2b 8d b9 3c dc b7 be bc c1 5f 83 bd d5 8b 39 3d
       0.022650322 -0.02328103 -0.06414748 0.04529937
000080 7b 8c 64 bd 9b 20 6b 3d 06 3c 5c ba fd 45 af 3d
       -0.055798035 0.057404142 -0.0008401278 0.08558271
000090 f3 40 dc bc dd ea e2 bc d8 a8 86 3c 22 a4 07 3d
       -0.026886439 -0.027699882 0.016437933 0.033115514
0000a0 46 66 ea 3c a8 0e 87 3d ee 13 5b bc 74 2d b8 3d
       0.02861322 0.06594592 -0.013371451 0.089930445
0000b0 ae 4b 9f 3d 00 04 0e bd 88 0f 86 3d 32 9e 5d bc
       0.07778107 -0.034671783 0.06545931 -0.013526486
0000c0 df 57 38 3c ad e0 de 3c 53 dd 3c bd 07 24 1e 3d
       0.011251419 0.027206743 -0.04610951 0.038608577
0000d0 49 69 9e bd 57 f0 ec 3c 6b ad 07 3d ec 46 9a bc
       -0.07734925 0.028923197 0.03312437 -0.018832646
0000e0 f5 fe 10 ba 3f 3f b4 3d c6 0c 83 3d 51 4a 3f bd
       -0.00055311556 0.08801126 0.06398921 -0.046701733
0000f0 31 60 00 3c 16 f3 ac 3b f2 cd 26 3b 8e 1d ab 3d
       0.007835434 0.0052780015 0.0025452343 0.083552465
000100 a2 ae 55 3d e9 f3 a6 3c cd a4 86 3d 68 02 9d 3d
       0.052168496 0.020379977 0.06574402 0.076664746
000110 76 59 13 3c 7f fc 38 bd fa 87 3f bd a3 8f 83 bd
       0.008993497 -0.045162674 -0.046760537 -0.06423881
000120 ff 1b d3 38 60 58 fd ba 7b f0 b3 3d c5 c1 05 3c
       0.00010066479 -0.0019328706 0.087861024 0.008163874
000130 76 f4 4d bd e2 1d b9 bc b2 ef 3a bd 3d 70 8a bc
       -0.050281964 -0.022597257 -0.045638748 -0.016899223
000140 41 ef 09 bc 3e ec 9b 3d e0 7e 00 bc 53 9f 99 3d
       -0.008418859 0.07613419 -0.007842749 0.07501092
000150 7f 6e 8d 3d dd 17 e5 bc 56 b4 95 bd 8f 77 4a 3d
       0.06905841 -0.02796548 -0.07309787 0.049430426
000160 6d 5a 96 bd dd 34 43 3d 08 89 82 bd c6 db 8a 3d
       -0.07341466 0.047657836 -0.06373793 0.067802
000170 a3 2e 31 3d 06 2f 95 bd d1 16 a1 bd 8a b3 ae 3d
       0.043257367 -0.0728436 -0.0786568 0.08530338
000180 cc f8 3d 3d b4 1d 92 bd 86 43 0c 3c 56 83 21 bc
       0.04637985 -0.07134572 0.008561021 -0.009857973
000190 af 2a 85 bd 2b 5a 0c 3d 0b e0 4d 3d 4c 6c c5 3c
       -0.06502282 0.03426568 0.050262492 0.024099492
0001a0 1f f2 a4 bc 5a c5 9c bc 51 6a a2 bd 0b ed 8a bd
       -0.020134984 -0.019137073 -0.079304345 -0.067834936
0001b0 f7 5f b4 3b f5 04 d4 3c 4a ee a4 3d 96 a7 53 bd
       0.005504604 0.02588127 0.080532625 -0.051673494
0001c0 f8 f9 ae 3d 2f 4b 6b bc 96 2b 8e 3d 2d 07 ad 3c
       0.085437715 -0.014361187 0.06941907 0.021121586
0001d0 57 93 24 bd 37 dd 01 3d b5 48 59 bd 12 5d 49 3d
       -0.040179577 0.031705108 -0.053047854 0.049161024
0001e0 f6 64 14 3d fb 00 56 bd c1 09 bc bd 4d a5 0e bc
       0.036229096 -0.05224703 -0.09181548 -0.008706403
0001f0 fd 0c d0 3b 6e b0 17 bd 7e 71 09 bd 3c 84 2c bb
       0.0063492046 -0.03703349 -0.0335555 -0.0026323935
000200 77 b2 1c bd 6f 04 0d bd 74 66 32 3c 50 7f 99 bd
       -0.038256135 -0.034428056 0.010888685 -0.07494986
000210 56 b6 86 bc 44 0c 56 3d 56 3b 88 bd 59 18 9f bd
       -0.016444366 0.05225779 -0.066519424 -0.07768316
000220 69 2a a7 bd 20 09 8c bd 1d ed 42 bd a3 17 10 3d
       -0.08162386 -0.06837678 -0.04758941 0.03517879
000230 5d c4 42 bd f1 08 94 bd 89 a9 94 bd 97 5a 13 3d
       -0.047550548 -0.07228268 -0.07258899 0.035975065
000240 4b 4a 3b bc 71 c4 8b bd 8e 2e ef bc 31 9e 83 3d
       -0.011431287 -0.068245776 -0.029197004 0.06426657
000250 bf a1 a5 bd 8e 57 e2 3c 42 17 66 3d a4 d7 04 bd
       -0.08087491 0.02762964 0.056174524 -0.032432213
000260 6b 0e ef 3c 51 4b 4d bd 40 88 ae 3d 86 b1 08 3d
       0.02918168 -0.050120655 0.085220814 0.033372425
000270 d8 61 9e 3d dc 05 11 bd a2 e4 84 bd d4 45 3e 3a
       0.07733506 -0.03540598 -0.06488921 0.000725833
000280 72 aa 81 bd d3 97 69 bc dc b6 75 bd ae f2 39 bd
       -0.06331338 -0.014257389 -0.05998884 -0.045397453
000290 77 65 38 3d 68 93 9a bd 02 36 57 3d 64 31 a6 bd
       0.04501864 -0.07547647 0.05254174 -0.08114889
0002a0 48 48 22 3d f1 86 44 bc 50 9f f4 bc 00 93 43 3d
       0.039619714 -0.011995063 -0.029861122 0.047747612
0002b0 84 05 e2 bc fc 29 79 bd c3 0b 4e bc 57 6b 2d bd
       -0.02759052 -0.060831055 -0.012576046 -0.042338695
0002c0 40 74 92 3d 8e fc 7e bb 1e 3f dc bc 28 dc 9c 3c
       0.07151079 -0.0038907859 -0.026885565 0.019147947
0002d0 f1 7f f1 bc 24 18 c2 3b 90 97 f7 bc dc c4 bf bc
       -0.029479953 0.005923288 -0.030223638 -0.0234093
0002e0 a1 16 44 3c c6 f5 ab 3b 6c 06 a2 bd 7b 94 a1 3c
       0.011968286 0.0052478043 -0.07911381 0.019724121
0002f0 3c 7b 25 bb a4 71 8c bd cd c1 a7 3d 6a 44 15 bd
       -0.0025250455 -0.06857613 0.081912614 -0.036442198
000300 87 73 8a bd 32 0f 9f bc 23 75 56 bd fe d1 8a 3d
       -0.06760316 -0.019416425 -0.052357804 0.06778334
000310 f2 75 4d bd d5 78 3f bd fb 28 ea 3c a6 d7 b3 bc
       -0.05016131 -0.046746094 0.028583994 -0.021953415
000320 92 50 67 3d 3c 1e 5f 3b e5 08 99 3b dc 11 60 bd
       0.056473322 0.003404512 0.0046702498 -0.054704532
000330 ae c0 1c 3d 7f e8 48 bd cb 33 91 bd 8a 4b cc bc
       0.03826969 -0.04904985 -0.07089957 -0.024938364
000340 c0 fa b0 3d a4 8d 75 3d c3 98 ae 3d a7 be 08 bd
       0.08641577 0.059949532 0.08525231 -0.033384945
000350 3b da 4d 3d a8 ec 52 3d c3 3c 9a bd 09 92 14 bd
       0.05025695 0.051495224 -0.07531121 -0.036272082
000360 00 e4 41 bd 2c 6b a9 3d f4 21 1a bd 5c 01 af bd
       -0.04733658 0.082723945 -0.037630036 -0.08545181
000370 10 76 a0 bc 4f 89 89 bc 06 fd 56 3d c3 6a 89 3d
       -0.019587547 -0.016789107 0.052487396 0.06709816
000380 ee f0 84 3d 16 b2 2b 3d 2c 31 95 bd 15 42 93 3c
       0.06491266 0.041917883 -0.072847694 0.017975846
000390 8c 24 83 bd d0 f8 92 bd a2 4b 78 3c 03 88 3e 3c
       -0.06403455 -0.071763635 0.015154751 0.011629107
0003a0 0b 8d 2a 3d 14 47 25 bc 62 12 5f 3d 74 54 67 3c
       0.041638415 -0.010087747 0.05446089 0.014119256
0003b0 bd c3 99 bd d8 1f 23 3b 29 c1 46 3d 90 41 6a bc
       -0.07508037 0.0024890807 0.048524056 -0.014297858
0003c0 6c 08 6a bd 2a c8 66 bd 5a 71 40 bd bb 02 56 bd
       -0.057136938 -0.056343235 -0.0469831 -0.052248698
0003d0 83 f6 4a bd 01 b2 3b bb 6c 54 40 bd 0a fa 35 bc
       -0.0495515 -0.0028640034 -0.04695551 -0.011106977
0003e0 1f f3 0e 3d ce f5 04 bb e1 e3 71 3d 6e ab f6 3c
       0.034899827 -0.0020288113 0.059055213 0.03011104
0003f0 06 84 28 bd af 6e 2b 3d 28 f9 80 bc 41 e5 a5 3d
       -0.041141532 0.041853603 -0.015743807 0.08100367

bias f4 [50]
000000 7b aa e0 bc 8a 81 97 3e a2 6e 30 bb 6b 32 65 bc
       -0.027425041 0.29591018 -0.002692141 -0.013989071
000010 c6 61 30 bd 53 30 3b bc c5 3e 2c 3e 96 14 a1 bb
       -0.043061994 -0.011425096 0.1682082 -0.004915784
000020 b2 b4 0f bd 81 f8 fa 3e 9d 34 84 bc 9c 54 cf 3e
       -0.035084434 0.49017718 -0.01613837 0.4049424
000030 b8 e1 f3 bb ed 65 6a bd 26 19 de bc 72 d4 50 3f
       -0.0074426793 -0.05722611 -0.027111601 0.81574166
000040 7f 26 6a bd 61 75 2e bc 2c cd d8 bc d1 f3 12 3f
       -0.05716562 -0.0106481025 -0.026465021 0.57403284
000050 2f d3 fb 3b 97 1b 5d bd e1 6a d1 bc 22 1a f8 bc
       0.007685087 -0.05398139 -0.02556366 -0.030285899
000060 c6 56 51 3e 88 01 28 3f 9c b2 6c bd cd 57 16 bd
       0.20443258 0.65627337 -0.057787523 -0.036704827
000070 92 fc a9 bc 9d 16 bb bb 40 d2 69 bd ef 29 98 bb
       -0.020750318 -0.005709483 -0.057085276 -0.0046436707
000080 3e b7 59 bd 9c 96 77 bc b8 2f 9f 3e 4b 6d 1c bc
       -0.05315327 -0.015111592 0.31091094 -0.009547542
000090 89 0c 4b bd 67 54 57 bc 1e 31 cb 3e f2 13 0e 3f
       -0.0495725 -0.013142682 0.3968591 0.55499184
0000a0 8c 9b a9 bb 99 3d a5 bc 58 a3 7a bc 30 75 b7 bc
       -0.0051760133 -0.020170974 -0.015297733 -0.022394747
0000b0 d5 4b f6 bc 98 4d c6 bd ba 64 8c 3d b9 14 ef 3e
       -0.030065456 -0.096827686 0.068551496 0.46695498
0000c0 5f cc eb 3e c2 50 44 bd
       0.4605436 -0.04792858

weight f4 [50, 50]
000000 06 5e 8f 3d 8c 5e 01 be 47 2a 61 3e 86 0c 75 3e
       0.070003554 -0.12633723 0.21988784 0.23930559
000010 c1 74 4d be 16 d7 3e 3e 7e 01 de 3c a3 11 69 be
       -0.2006407 0.18636736 0.02710032 -0.22760634
000020 f1 72 82 3d bd 08 30 be 3f 17 53 3e e4 b1 29 3e
       0.063695796 -0.17190833 0.20614336 0.16571766
000030 5d 76 0b be e5 bf 57 be 9a 70 5d 3e 97 e5 73 be
       -0.13619371 -0.21069296 0.21624985 -0.2381805
000040 81 4a be bd 76 d0 03 3e 18 ab 5f be 21 c0 9e 3d
       -0.09291554 0.1287249 -0.21842611 0.077514894
000050 9e 2f 32 be 7b 87 80 3e d1 27 25 be 04 a5 c7 bd
       -0.17400977 0.25103363 -0.1612847 -0.09748271
000060 c7 88 b9 bd 7d 01 0e be e7 dc e7 bd 23 70 10 3e
       -0.09059291 -0.13867755 -0.11321431 0.14105277
000070 f2 4d 1f 3e e0 6d 4e be 71 7a 53 be dd 57 50 bd
       0.15557078 -0.20159101 -0.20652176 -0.050865043
000080 a4 d9 f2 bd fe 02 fa 3c 9a 7c 71 be 7b 79 14 be
       -0.11857918 0.030519005 -0.23582688 -0.14499466
000090 aa a8 14 3d 76 db 0d be fd 32 17 be a9 87 f5 3c
       0.036293663 -0.13853249 -0.14765544 0.029971914
0000a0 cc c8 0b 3e 1f ec 61 be 6b 3e 48 3d 30 0c f2 bd
       0.13650817 -0.2206273 0.04888765 -0.11818731
0000b0 fa 99 4e 3e 2b 4d ed 3c 8a b0 18 be da b4 08 be
       0.20175925 0.02896746 -0.14911094 -0.1335024
0000c0 2b bf 52 3e 5c ce 18 3e 25 a9 55 be 0b 83 0b be
       0.20580737 0.1492247 -0.20865305 -0.13624208
0000d0 a3 2a c3 3e cd cc 23 be 55 99 e4 3c 88 6d 49 be
       0.38118467 -0.15996094 0.027905146 -0.19670689
0000e0 f7 bd 34 3e 15 29 25 be 87 70 5d be c7 39 35 be
       0.17650591 -0.16128953 -0.21624957 -0.17697822
0000f0 05 b0 9a 3d a9 98 ec 3a e0 1a d1 3e 4c 32 5e be
       0.07553104 0.0018050867 0.40840816 -0.21698874
000100 34 0a 23 be 78 94 3b 3e 52 67 7e be 8a 15 d1 3d
       -0.15921861 0.18318355 -0.24844101 0.102091864
000110 33 c6 ae 3e 08 1b 2f 3e cb 5b 0e be 7d e9 2b be
       0.3413559 0.17100155 -0.13902204 -0.16788287
000120 7e 12 39 be d3 42 4e be 68 ec 1f be c9 06 2f be
       -0.1807346 -0.20142679 -0.15617526 -0.17092432
000130 c1 3e 8c 3e 42 5a 9e 3d e5 4e d4 bd c7 aa 11 be
       0.27391627 0.07732059 -0.103666104 -0.14225303
000140 f8 9a 19 bd f8 fd 5c be 10 a3 0a bd 36 6d 17 3e
       -0.037501305 -0.21581256 -0.033846915 0.14787754
000150 f3 a0 15 be 4a a4 7c be bb ac 9a 3c d8 da 97 3e
       -0.14612179 -0.24672046 0.018881192 0.29659152
000160 19 e0 b4 3d 42 40 55 be 66 d8 03 bd 1f 8d a6 3e
       0.08831806 -0.20825294 -0.032188796 0.32529542
000170 04 b3 1f 3e a0 29 1a 3e 04 60 6a 3e 92 b3 cc 3b
       0.15595633 0.15054941 0.2288819 0.0062469924
000180 ab 9c 4d be d9 ea f2 bd bb c7 b3 3e c8 79 b1 3e
       -0.20079295 -0.118612 0.3511332 0.34663224
000190 c7 30 31 3e 8f f0 08 3e 83 47 a7 bd 0f a2 82 bd
       0.17303763 0.13373016 -0.08167937 -0.063785665
0001a0 90 cd 90 3d 17 73 d7 3e 35 02 80 3e 01 1a 1d be
       0.07070458 0.42079994 0.25001684 -0.15341951
0001b0 b8 93 20 be 9e fb f7 bd e3 31 63 3e 93 33 dc 3d
       -0.1568135 -0.12108539 0.22186999 0.107520245
0001c0 cc 2c 8f bc 33 49 80 3e 08 a1 05 3e 21 dc f5 bc
       -0.017477416 0.25055847 0.1304971 -0.030012192
0001d0 99 28 56 3e d4 30 73 3d 6a cd a2 3e 62 87 4b 3e
       0.20913924 0.059372738 0.31797343 0.19875863
0001e0 e3 fb 54 3d 55 21 2e be 0a 1e 77 3c f9 94 2f be
       0.05199803 -0.17004903 0.015082845 -0.17146672
0001f0 82 98 83 3e b9 7d 1d 3c 15 7d 05 3e 8c c8 9c bc
       0.25702292 0.009612494 0.13035996 -0.019138597
000200 72 b8 fa 3d dc 6b b2 bd 36 6f 87 be 0c 85 cf bc
       0.122422114 -0.08711979 -0.26452035 -0.025331996
000210 04 70 3e 3e 6c 0a 7c bd b2 94 2b 3e 98 72 a6 3d
       0.18597418 -0.061533377 0.16755942 0.08127326
000220 ea 4c 41 3e dd 28 a6 3e 15 62 87 3e 4e 86 c4 bc
       0.18876997 0.3245305 0.26442018 -0.023989823
000230 af 74 a5 3d 8b 87 99 3e 05 ee 50 3e 97 82 b5 bc
       0.08078896 0.29986224 0.20403297 -0.022156997
000240 2b d8 7c bb af c6 72 3e 82 dd 17 3e d5 8b 17 3e
       -0.0038580995 0.23708604 0.14830592 0.14799435
000250 20 a9 1c 3e 3f 84 0a be 95 14 19 be a5 06 53 be
       0.15298891 -0.1352701 -0.14949258 -0.20608003
000260 6b df 84 3e 21 33 57 3e b2 ed b5 bd 52 bb 45 3e
       0.25951704 0.21015598 -0.088832274 0.19309738
000270 e0 e8 3d 3e c5 37 3e bd 86 b8 60 3d 7d 42 c9 3d
       0.18545866 -0.046439905 0.054863475 0.09827135
000280 32 72 a0 3b 11 6d da 3d f5 f9 9c 3d cf bc 55 3e
       0.0048964256 0.10665334 0.07664863 0.20872806
000290 f4 15 35 3e f6 76 46 3e c1 84 84 3e 01 57 c7 3d
       0.17684156 0.19381317 0.25882533 0.097333916
0002a0 58 b5 e5 3d f9 66 55 be 30 6e fa bb 6a 0c 49 3e
       0.11216229 -0.20840062 -0.00764253 0.19633642
0002b0 e1 c5 30 bd 74 b8 6b 3e 63 54 a4 bd 7a 62 08 bc
       -0.043157462 0.23019582 -0.08023908 -0.00832426
0002c0 66 bf 3c be fc 92 7b 3d 7e 58 22 be c0 8e 91 bc
       -0.18432388 0.061419472 -0.1585407 -0.017768264
0002d0 f0 27 1c 3e 22 ff ad 39 4a 54 b8 bd 87 c4 15 bd
       0.1524961 0.0003318722 -0.09000452 -0.036564376
0002e0 53 e9 3c be 68 8b fe bd 91 d4 d1 bd 4b 68 fa bd
       -0.18448381 -0.124289334 -0.10245622 -0.122269236
0002f0 09 14 31 3e 09 d8 e9 bd 16 8c 53 bd a2 6b 66 bd
       0.17292799 -0.114181586 -0.05164727 -0.05625499
000300 14 b2 be ba d8 51 69 3e 55 0a 27 be 5d bb 66 3d
       -0.0014548921 0.22785127 -0.16312535 0.056331027
000310 fc 52 95 bd ae cf f0 3d 3e 68 a1 3e ca 08 06 be
       -0.07291219 0.11758362 0.31524843 -0.1308929
000320 07 ed d0 bd a7 82 4d 3e 65 7d 21 be 43 c0 ac bd
       -0.102014594 0.20069371 -0.1577049 -0.084351085
000330 f8 28 7b 3e bd 2d 3e be fb cd 3e be a7 c1 a4 bd
       0.24527347 -0.18572135 -0.18633263 -0.08044749
000340 7b 2c c2 3d 45 84 0b be 5e cf e4 bc 60 d1 3f bd
       0.0948114 -0.13624676 -0.027930912 -0.046830535
000350 2f 1f 0d 3e 74 33 ba bd 18 fa 79 3e dd 1f 10 3e
       0.13781427 -0.09091845 0.2441181 0.14074655
000360 1a 94 39 3d 23 b5 dc 3d 11 15 76 3e e5 c1 07 3e
       0.045307256 0.107767366 0.24031474 0.13257559
000370 0d aa 7b be bf 77 be 3d d3 ae 6f bd 20 39 37 be
       -0.24576588 0.093001835 -0.058516335 -0.17892885
000380 cb 23 eb bd 36 ae 36 be b9 83 71 be 50 e7 44 3e
       -0.11481436 -0.17839894 -0.23585404 0.19228864
000390 6c a0 44 3e 87 21 40 3e 48 29 d9 bd d1 3b 78 bd
       0.19201821 0.1876279 -0.10603577 -0.06060392
0003a0 b8 be e4 3c 16 8a e3 3d c3 84 43 be 26 92 f6 bd
       0.027922973 0.11110322 -0.19093613 -0.12039594
0003b0 04 7a 0f 3e 55 b8 62 bc 2a 3b 49 be 9c 6d 03 be
       0.14011389 -0.0138378935 -0.19651476 -0.12834781
0003c0 2d 99 7e 3e 2c 1b fd bd a2 ed 31 3d 2f d6 6c 3c
       0.2486312 -0.12358698 0.043439515 0.014455362
0003d0 3e ea 92 3d 1a f8 5d bd f1 65 c3 3b d5 6c 85 bd
       0.071735844 -0.054191686 0.00596308 -0.06514899
0003e0 01 eb d2 bd 2e 8e 50 3e 45 32 c4 bd 83 e6 cd 3c
       -0.1029873 0.20366737 -0.09579901 0.02513433
0003f0 a5 d5 0c be c2 5e 0e 3e 4c 2a 1e 3d c3 5c 18 be
       -0.13753374 0.13903335 0.038614556 -0.14879136

bias f4 [50]
000000 85 d0 08 3d cb b1 32 3d 63 a3 41 3d 37 ad 22 3d
       0.033401985 0.043626588 0.04727496 0.03971597
000010 43 85 75 3d 60 0b 8c bd c6 27 4a be da c3 ec 3a
       0.05994154 -0.06838107 -0.19741735 0.0018063739
000020 1f 5d 03 be 49 49 79 bd 12 ee c8 3d 04 27 35 bd
       -0.12828492 -0.060860906 0.09811033 -0.04422666
000030 f2 bb b8 bd 20 67 d3 bd 78 5c 0d 3d 7e 43 00 3e
       -0.09020223 -0.10322404 0.034512013 0.12525746
000040 4b e1 19 bd 2a 13 4a bd df 7f d5 bc 41 d4 34 3b
       -0.03756837 -0.049334683 -0.02606195 0.0027592333
000050 53 e1 34 3e 54 73 02 3e e2 52 44 3d 59 90 90 3d
       0.1766408 0.12739307 0.047930606 0.07058782
000060 5a 3f 53 3d 50 62 27 bb 1d 68 a7 bb 33 d5 a6 3d
       0.05157409 -0.0025540777 -0.005108847 0.08146133
000070 90 a8 77 3d eb 84 3f 3e e4 17 05 3c 1a 65 ba 3c
       0.060463488 0.18703048 0.008123372 0.022753287
000080 ee d2 50 3c 66 02 5a 3e e2 e9 95 bd c7 7b 02 3e
       0.012745602 0.21289977 -0.0732 0.1274253
000090 85 d5 81 bd a6 4d d8 3c 9a 5b c0 bc 73 1b dd bd
       -0.06339554 0.026404213 -0.023481179 -0.10796251
0000a0 dd 71 a6 3d 80 d4 d0 3d ea 12 39 bb fc 8d 77 3d
       0.081271864 0.10196781 -0.0028240033 0.06043814
0000b0 90 19 4e 3e 95 d4 0a 3d 9a eb 34 3c 81 22 88 bc
       0.20126939 0.03389414 0.0110425 -0.016618015
0000c0 97 cf 81 bd 7e 83 9e 3d
       -0.06338423 0.07739924
